WiFi-CSI-Transfer-Learning/best_transfer_model.pth (torch, 358368 bytes, 10 tensors)

encoder.0.weight f4 [16, 1, 12]
-0.0008026937 0.18340659 0.24409425 -0.20489353 -0.044015493 0.27214563 0.16219856 -0.16319135
0.07843391 -0.1599592 0.22970235 -0.28695118 -0.17678608 -0.24454808 -0.2232249 -0.24894989
0.04168809 -0.09068886 0.016807716 -0.30916956 0.15748812 0.1600482 -0.00915778 -0.17933537
-0.19079307 0.17847732 0.12984173 -0.17336687 -0.25441933 0.13741712 0.12291171 -0.23106676
0.13743952 0.27165607 0.055778876 0.1674636 0.051774483 -0.23876326 0.1817362 0.02024169
-0.0031998644 0.0117339585 0.21274649 0.27514148 0.09761561 -0.114014596 0.19937988 -0.2619592
0.18114963 0.04566844 0.26007804 -0.079868436 -0.023945889 0.27656525 -0.2965581 -0.030531958
0.035571493 0.10783341 0.10517755 0.09843954 0.16316447 -0.22835831 -0.09255345 -0.30724436
-0.17871173 -0.20111348 0.21087195 0.059145022 -0.19101842 -0.08784671 0.074275285 -0.0031459224
-0.08270132 -0.13065062 0.05935874 -0.026704684 0.30474555 -0.21309933 0.29218584 0.0132148545
0.26270235 0.25353184 0.110116474 -0.080281466 -0.08581937 0.14843655 0.22088444 0.16523057
-0.27121338 0.08191381 0.10751707 -0.23520961 0.07929626 0.25759047 -0.11907284 0.20019881
0.023034533 -0.22504307 0.18708423 0.10090269 0.10311842 -0.12826437 -0.041279744 -0.22522968
0.1718777 0.22076818 -0.028283225 -0.2711945 0.19707033 -0.12642057 -0.2396007 -0.12087493
0.076701686 -0.084116496 0.04935481 0.27991697 0.2825209 0.2393848 0.120483465 -0.2718879
0.018973347 0.20525233 0.028954372 0.20426416 -0.08978773 0.022514792 0.07220163 -0.13346557
0.0577045 -0.149111 0.13359156 -0.1530286 0.0438528 -0.28758904 -0.17759107 -0.18025845
-0.03493534 -0.291549 -0.041305218 0.17499703 0.0377793 0.1636255 0.24000224 -0.081604496
0.026689583 0.21478397 0.11529802 0.08887475 -0.26370937 -0.18790141 -0.10400064 -0.3018768
0.04627558 -0.24868307 -0.19672878 -0.25707257 -0.07292954 0.13899335 -0.29876044 -0.14247443
-0.31532398 -0.2084559 -0.13254589 -0.043700267 0.016138645 0.18160664 -0.19182079 -0.1936958
0.058771506 0.15774672 0.09715539 -0.08233014 -0.10322291 -0.068633296 -0.13978034 0.010148401
0.25941217 -0.22352247 -0.17600216 -0.061391655 -0.14263818 0.04837314 -0.011766182 0.29685038
0.021767944 0.22372629 0.12269855 -0.23970477 -0.09231145 -0.05708176 0.035474826 0.21231592
00000000: dd6b 52ba f0ce 3b3e d8f3 793e 9ccf 51be
00000010: 9749 34bd ac56 8b3e 6117 263e a21b 27be
00000020: f5a1 a03d 58cc 23be 1837 6b3e 44eb 92be
00000030: 6907 35be d06a 7abe 1195 64be b8ec 7ebe
00000040: 21c1 2a3d 15bb b9bd 56b0 893c 794b 9ebe
00000050: 9144 213e ade3 233e 830a 16bc b1a3 37be
00000060: 425f 43be c2c2 363e 3bf5 043e 1687 31be
00000070: 4043 82be 13b7 0c3e 22b9 fb3d c49c 6cbe
00000080: f2bc 0c3e 8116 8b3e 6478 643d 947b 2b3e
00000090: 7b11 543d 5b7e 74be 0e19 3a3e e7d1 a53c
000000a0: d1b4 51bb ca3f 403c 37da 593e 58df 8c3e
000000b0: b1ea c73d 7c80 e9bd 3d2a 4c3e 841f 86be
000000c0: 4a7f 393e d50e 3b3d f328 853e 1092 a3bd
000000d0: 2b2a c4bc f699 8d3e 77d6 97be 281e fabc
000000e0: 6ab3 113d c3d7 dc3d 5467 d73d ab9a c93d
000000f0: 9614 273e c3d6 69be aa8c bdbd 224f 9dbe
00000100: 3500 37be b1f0 4dbe d1ee 573e 0d42 723d
00000110: 559a 43be fae8 b3bd a41d 983d d22b 4ebb
00000120: 4f5f a9bd 47c9 05be 2622 733d c8c3 dabc
00000130: 9c07 9c3e b636 5abe 6299 953e 1e83 583c
00000140: ec80 863e edce 813e bf84 e13d 9c6a a4bd
00000150: 11c2 afbd c0ff 173e 882f 623e 3432 293e
00000160: 7bdc 8abe 6dc2 a73d e931 dc3d cada 70be
00000170: 1466 a23d e6e2 833e 76dc f3bd eb00 4d3e
00000180: ebb2 bc3c b171 66be 0293 3f3e 12a6 ce3d
00000190: c02f d33d bc57 03be f314 29bd 9ca2 66be
000001a0: b500 303e 0e11 623e 39b2 e7bc 01da 8abe
000001b0: cecc 493e 6574 01be e359 75be 468d f7bd
000001c0: c615 9d3d 4545 acbd 4528 4a3d 4751 8f3e
000001d0: 94a6 903e 4a21 753e 09c0 f63d e434 8bbe
000001e0: fe6d 9b3c ab2d 523e b831 ed3c a02a 513e
000001f0: a1e2 b7bd f170 b83c 73de 933d 33ab 08be
00000200: 8e5b 6c3d 8eb0 18be 3acc 083e 88b3 1cbe
00000210: fe9e 333d df3e 93be 6fda 35be ac95 38be
00000220: 5c18 0fbd e945 95be a92f 29bd 6c32 333e
00000230: 78be 1a3d 718d 273e 26c3 753e 4220 a7bd
00000240: 1da4 da3c 54f0 5b3e 5e21 ec3d f703 b63d
00000250: ea04 87be 3a69 40be 4afe d4bd 998f 9abe
00000260: 768b 3d3d c6a6 7ebe 4573 49be 049f 83be
00000270: 155c 95bd 4654 0e3e 21f7 98be d1e4 11be
00000280: 2572 a1be 7775 55be 1cba 07be 0dff 32bd
00000290: 3135 843c 17f7 393e ab6c 44be 3158 46be
000002a0: 64ba 703d 5b88 213e 68f9 c63d b49c a8bd
000002b0: 8866 d3bd 9d8f 8cbd 9422 0fbe 7b45 263c
000002c0: acd1 843e 13e3 64be e939 34be d175 7bbd
000002d0: be0f 12be ea22 463d f2c6 40bc c6fc 973e
000002e0: b052 b23c 8118 653e 6149 fb3d 2b75 75be
000002f0: c90d bdbd 90ce 69bd 0d4e 113d 5869 593e

encoder.0.bias f4 [16]
-0.09551564 -0.1981561 -0.26158252 0.098448835 0.09570743 -0.06752246 -0.20769069 0.27631554
0.002756294 -0.11526124 -0.043403983 0.043647997 0.24138932 0.11161674 -0.17579046 0.06589355
00000000: b49d c3bd 6fe9 4abe 25ee 85be 8b9f c93d
00000010: 4202 c43d 3749 8abd deac 54be 3b79 8d3e
00000020: f1a2 343b 160e ecbd 60c8 31bd 3ec8 323d
00000030: c32e 773e 5197 e43d 6a02 34be 33f3 863d

encoder.3.weight f4 [32, 16, 7]
0.096493006 -0.037953544 0.032052256 0.009876872 0.019706324 0.08381452 0.0035801588 0.04947406
-0.024999447 0.09612918 0.05350736 0.06359609 0.027543085 -0.0372457 -0.06824569 -0.0655781
0.07875389 -0.024227083 0.051788535 -0.06855638 -0.07112159 0.04760381 0.0741404 0.08779674
-0.08222886 -0.02731286 -0.00092404906 -0.037463363 -0.010370995 0.107091025 0.06912105 0.032075673
0.042950127 0.030432254 -0.017464977 0.08551492 -0.022109773 -0.03215775 0.0319388 0.018298382
-0.008713608 -0.07004784 0.020402156 -0.05780035 -0.004843211 -0.019283399 0.04677015 0.060302403
-0.05474257 -0.072041236 -0.08287571 0.09319188 -0.05927554 0.0074101384 -0.068886824 0.09634981
0.01536268 0.07269845 0.08974881 0.019276287 -0.06498525 -0.06148164 -0.059870027 0.071423076
-0.064585276 0.06520766 -0.06532854 0.09113794 -3.1177275e-05 0.03510094 0.091671824 0.042153697
0.05012352 0.059230622 0.049765643 0.051748846 -0.07016372 -0.06224641 0.020479633 -0.047044132
0.04506846 0.06859627 0.028221326 0.06789024 0.055107232 0.005509676 0.008551733 -0.042151812
0.046021424 -0.043497026 0.08806973 0.072349675 -0.07579168 0.07756281 0.106592536 -0.054350212
-0.0045013675 0.07414661 0.006817958 0.026563402 0.09587004 0.055086046 0.012188717 -0.034117058
-0.0067432267 0.09927475 -0.0150521835 -0.025200842 0.06552136 -0.06445791 -0.06429364 0.0034145298
0.10051296 0.09245796 0.09264159 0.0057132524 -0.03046306 -0.025952715 0.015599386 0.08675716
-0.064228244 -0.003951605 0.033737883 0.020081917 -0.040706366 -0.11041034 0.034471236 0.032378275
0.07906675 0.102876924 0.025924746 -0.017864784 -0.022822075 0.08895782 0.11450416 0.07503166
0.11957115 -0.04949632 0.09893645 0.037430227 0.046406712 0.0044298745 0.050943088 0.050275613
0.12910746 -0.036176022 0.060695115 0.042378772 -0.008568664 -0.029989017 -0.026536532 -0.06792353
-0.059392907 -0.06138985 0.073638186 -0.02774239 0.088800065 -0.06926175 0.09871084 -0.04409051
-0.05322819 0.014953909 -0.002230581 -0.016801504 -0.042953536 -0.022564411 0.092647344 0.058311395
-0.015284482 -0.02861629 -0.012056522 0.007638519 -0.002376873 0.0401375 -0.0069427676 0.017044954
0.009280752 0.007944997 -0.0238519 -0.028732328 -0.07482617 0.08978537 -0.026091611 -0.043198913
0.12748714 0.043330573 -0.028176636 0.0015906821 0.0751258 0.096610606 -0.0021147025 0.026091874
0.08282803 -0.0432187 0.07470026 -0.07408341 0.056562286 -0.048761792 0.09294627 -0.07314215
-0.019838974 0.018478934 -0.052897524 -0.048753563 -0.030580569 0.036237005 0.09185467 0.005012093
0.07507462 -0.08217419 0.10113865 0.02388977 -0.025382895 0.019211618 0.029859448 0.018704014
0.045831908 -0.050555132 0.12011022 0.12387142 -0.014141191 0.027653622 0.13203573 0.0015054445
0.02095917 0.03826773 0.073399365 0.11767259 0.06837155 -0.0012244211 0.045306142 -0.08213517
-0.025649073 -0.056880023 -0.062600866 -0.08919292 -0.06555055 -0.0491287 -0.014387905 0.03930369
0.021387722 -0.0140796825 0.04497391 0.0742969 0.07171329 0.09519158 0.047909122 0.0457652
0.06758444 -0.014350546 0.090289444 -0.019569272 0.089693315 -0.0031189804 0.031823862 0.12198943
00000000: 209e c53d 2d75 1bbd 3a49 033d 9bd2 213c
00000010: 286f a13c f2a6 ab3d 19a1 6a3b 50a5 4a3d
00000020: a4cb ccbc 60df c43d 892a 5b3d ab3e 823d
00000030: 09a2 e13c f28e 18bd 65c4 8bbd d04d 86bd
00000040: b849 a13d e077 c6bc 3720 543d 4a67 8cbd
00000050: 32a8 91bd 36fc 423d ecd6 973d c7ce b33d
00000060: 9b67 a8bd 38bf dfbc e23b 72ba 2f73 19bd
00000070: 1beb 29bc 8a52 db3d 568f 8d3d c861 033d
00000080: 79ec 2f3d 104d f93c b612 8fbc 7222 af3d
00000090: 8e1f b5bc d8b7 03bd 42d2 023d 7de6 953c
000000a0: 85c3 0ebc 3e75 8fbd 6c22 a73c 0fc0 6cbd
000000b0: ccb3 9ebb 38f8 9dbc 0f92 3f3d a7ff 763d
000000c0: bf39 60bd 5b8a 93bd beba a9bd 62db be3d
000000d0: e9ca 72bd bfd0 f23b 8914 8dbd 0d53 c53d
000000e0: c0b3 7b3c ede2 943d 39ce b73d 4ee9 9d3c
000000f0: fd16 85bd 2cd4 7bbd 463a 75bd 4346 923d
00000100: 4945 84bd 988b 853d f8ca 85bd 87a6 ba3d
00000110: 58c4 02b8 01c6 0f3d 70be bb3d 5ba9 2c3d
00000120: 524e 4d3d cf9b 723d 0fd7 4b3d 99f6 533d
00000130: ffb1 8fbd 17f6 7ebd e7c4 a73c 59b1 40bd
00000140: b599 383d 347c 8c3d 6930 e73c 0a0a 8b3d
00000150: 1fb8 613d 838a b43b 911c 0c3c 61a7 2cbd
00000160: f680 3c3d f029 32bd e75d b43d 112c 943d
00000170: ab38 9bbd 40d9 9e3d 304d da3d 549e 5ebd
00000180: 3580 93bb 2eda 973d 2d69 df3b 7e9b d93c
00000190: 8357 c43d e8a1 613d 2fb3 473c 54be 0bbd
000001a0: 49f6 dcbb 8f50 cb3d 6f9d 76bc ff71 cebc
000001b0: 1030 863d 8202 84bd 62ac 83bd 4ec6 5f3b
000001c0: bdd9 cd3d 995a bd3d e0ba bd3d 3c36 bb3b
000001d0: ab8d f9bc ca9a d4bc 9194 7f3c bdad b13d
000001e0: 198a 83bd 777c 81bb bc30 0a3d d582 a43c
000001f0: b8bb 26bd d11e e2bd b631 0d3d 159f 043d
00000200: c0ed a13d 23b1 d23d 2260 d43c 2b59 92bc
00000210: 5cf5 babc 842f b63d 2881 ea3d 33aa 993d
00000220: b8e1 f43d a7bc 4abd 329f ca3d 7050 193d
00000230: f714 3e3d 7b28 913b b3a9 503d cded 4d3d
00000240: bf34 043e 4f2d 14bd 719b 783d 5d95 2d3d
00000250: 9563 0cbc 87ab f5bc 2463 d9bc 7e1b 8bbd
00000260: fa45 73bd ec73 7bbd 9ecf 963d 0244 e3bc
00000270: cfdc b53d 1bd9 8dbd e928 ca3d 4098 34bd
00000280: cd05 5abd 3e01 753c f02e 12bb 4fa3 89bc
00000290: 0cf0 2fbd 00d9 b8bc e4bd bd3d eed7 6e3d
000002a0: c46b 7abc b66c eabc b888 45bc 8b4c fa3b
000002b0: 50c5 1bbb 3867 243d 2880 e3bb dca1 8b3c
000002c0: 4c0e 183c bc2b 023c 0f65 c3bc 0f60 ebbc
000002d0: 773e 99bd 64e1 b73d 13be d5bc 58f1 30bd
000002e0: fd8b 023e 667b 313d b0d2 e6bc 6f7e d03a
000002f0: 8edb 993d c8db c53d d296 0abb a0be d53c
00000300: bea1 a93d 1706 31bd 73fc 983d 0bb9 97bd
00000310: dbad 673d 72ba 47bd 9d5a be3d 8dcb 95bd
00000320: 5885 a2bc 2261 973c 13ab 58bd d1b1 47bd
00000330: 1a84 fabc 416d 143d 4d1e bc3d 7c3c a43b
00000340: b9c0 993d f14a a8bd c821 cf3d 7bb4 c33c
00000350: caef cfbc af61 9d3c cd9b f43c 2939 993c
00000360: 3dba 3b3d e612 4fbd 59fc f53d 4db0 fd3d
00000370: 74b0 67bc d989 e23c 6034 073e 5652 c53a
00000380: 91b2 ab3c a0be 1c3d 6852 963d 54fe f03d
00000390: 6206 8c3d c17c a0ba ef92 393d 7c36 a8bd
000003a0: 011e d2bc 07fb 68bd e234 80bd c7aa b6bd
000003b0: 5e3f 86bd 2d3b 49bd 3fbb 6bbc e8fc 203d
000003c0: 4e35 af3c 78ae 66bc 9036 383d f928 983d
000003d0: 6bde 923d cef3 c23d 5b3c 443d 4a74 3b3d
000003e0: b669 8a3d 8d1e 6bbc ace9 b83d bd4f a0bc
000003f0: 21b1 b73d cf67 4cbb bd59 023d 98d5 f93d

encoder.3.bias f4 [32]
0.052268654 0.058310643 -0.01549296 -0.03971431 0.0055709924 -0.06796507 0.006165005 0.024923012
0.09874659 -0.029221818 0.0571768 -0.05731061 0.09763855 0.06560617 0.03525944 0.05570315
0.10958718 0.054374866 -0.061036844 -0.019831307 0.017159717 -0.030643234 0.1098092 -0.079171225
-0.02803926 -0.029066239 0.032621246 0.069302596 0.016609974 -0.031043526 -0.055936873 0.02728899
00000000: a817 563d 24d7 6e3d 2fd6 7dbc 79ab 22bd
00000010: df8c b63b 4531 8bbd cf03 ca3b 582b cc3c
00000020: a73b ca3d 9862 efbc 3832 6a3d 88be 6abd
00000030: b8f6 c73d 875c 863d 346c 103d fc28 643d
00000040: 3e6f e03d 2eb8 5e3d c501 7abd 4475 a2bc
00000050: 8992 8c3c 8507 fbbc a5e3 e03d 8624 a2bd
00000060: 97b2 e5bc 521c eebc db9d 053d 85ee 8d3d
00000070: a411 883c fe4e febc 101e 65bd 298d df3c

lstm.weight_ih_l0 f4 [512, 32]
0.08437955 -0.083995074 0.059343975 0.0017709718 -0.04145397 0.004111761 -0.06594009 0.05232971
-0.014326399 0.048624534 -0.06810696 -0.026632594 -0.048607875 -0.0145538 0.08029186 0.012516387
-0.028227288 0.06055136 0.100539505 0.041109603 -0.031249026 0.015962142 0.04181295 -0.016074374
-0.03726692 0.0077982075 -0.017136652 0.027768532 0.0059457934 0.105318144 0.08991599 0.06248412
-0.015676439 -0.025871534 0.0603702 -0.09603521 0.005986869 0.06677856 0.02006563 0.033508014
0.10270466 -0.066325076 0.018021272 -0.018681806 0.068849556 0.06467884 -0.03790496 -0.020033434
0.07160215 -0.0767785 0.058484484 0.046996523 -0.015798597 -0.048418075 -0.009991433 0.0346023
-0.061944455 0.07357873 0.06888323 -0.04754282 -0.07521233 0.058718752 -0.042383604 -0.084000885
-0.03779322 -0.020102657 -0.02836001 -0.062598936 0.064425856 0.034870356 -0.022652144 0.07803781
-0.003995588 0.085066766 -0.080610506 0.015410888 0.017140884 -0.052014805 0.11987328 -0.044137284
0.09800822 -0.065500624 0.05425545 0.05726202 -0.040359385 -0.047771227 -0.02717267 -0.0018606368
-0.048641026 -0.051332347 0.05416361 0.09132129 -0.018478997 0.06001795 0.045042787 0.0696294
-0.032169368 0.015533406 0.062996805 -0.03194437 -0.027369918 0.0046020127 -0.026313148 -0.038613167
-0.010544289 0.05354131 -0.061864506 -0.07878128 0.022214644 -0.0163408 0.05991934 0.025117088
-0.04705525 -0.053955305 -0.0027032036 -0.01203519 0.016441127 0.065130435 0.08190434 0.03707035
0.11123047 0.0028490224 0.004025908 -0.027132887 0.0018970886 0.077436395 0.079607755 -0.04152242
0.029393675 0.028606718 0.037054792 0.052031983 0.07348266 -0.026643425 -0.050748244 0.028856894
0.046947148 0.011934604 0.061100807 -0.08920554 -0.058636557 -0.07340398 -0.021858819 -0.06524293
-0.025388137 -0.00898955 0.05017853 -0.035560995 -0.06844149 -0.05740473 0.04684024 -0.08109616
-0.08453746 0.011724196 0.08851535 -0.07339792 0.0062007974 0.008356986 0.049709115 0.08729363
-0.042640068 0.047153004 0.05333305 0.062778935 0.024808776 0.040939793 0.10549839 -0.024180293
0.026838267 0.045340605 0.10482619 0.08188192 0.042980917 -0.017038278 -0.036639657 0.09207885
0.06727559 0.092465565 0.091634266 0.11144616 0.06573227 -0.029949164 0.000992956 -0.015930472
0.10422259 -0.017353628 0.10241468 0.06593586 0.03799015 -0.043469667 -0.037274487 0.04669632
-0.0256976 -0.041663546 0.026630288 -0.041039087 -0.054448716 0.07037011 0.09080475 0.06728603
0.091882475 0.045219798 0.07330041 -0.012980869 0.044574212 0.094166435 0.083045684 0.0940393
0.013985193 -0.069778115 0.029873313 -0.013288501 0.10360268 0.092086494 -0.016985392 -0.064857595
0.00333828 0.043027826 0.0887488 0.042683642 0.028660174 -0.068312965 -0.046396088 -0.040921323
-0.06882348 0.0033888211 -0.025287159 0.0462092 0.035111226 0.01935489 0.052787155 0.09955942
0.039835915 -0.068046354 -0.05837918 0.036786962 -0.045260668 -0.04632116 -0.034271605 0.05798468
0.0804578 -0.048674796 -0.01865944 0.022928407 0.050446063 0.018681984 0.049618322 0.018355485
0.035318296 -0.055886928 -0.017594935 0.04926753 0.04655178 -0.04983815 0.08773575 0.07647528
00000000: 2fcf ac3d 9c05 acbd ab12 733d f41f e83a
00000010: a3cb 29bd f4bb 863b 990b 87bd ae57 563d
00000020: 46b9 6abc 852a 473d a97b 8bbd 992c dabc
00000030: 0d19 47bd 1073 6ebc 0f70 a43d 8811 4d3c
00000040: ea3c e7bc b404 783d a8e7 cd3d 8b62 283d
00000050: f5fd ffbc 0ac3 823c 0e44 2b3d 68ae 83bc
00000060: 33a5 18bd 1b88 ff3b 2a62 8cbc d57a e33c
00000070: eed4 c23b 0ab1 d73d e025 b83d 59ef 7f3d
00000080: e06b 80bc 8af0 d3bc be46 773d 1cae c4bd
00000090: 7f2d c43b 33c3 883d ad60 a43c b33f 093d
000000a0: d256 d23d 71d5 87bd 59a1 933c 960a 99bc
000000b0: ff00 8d3d 5776 843d 3b42 1bbd 281d a4bc
000000c0: 26a4 923d 0c3e 9dbd 6d8d 6f3d 6d7f 403d
000000d0: 0f6c 81bc 0852 46bd 1bb3 23bc 24bb 0d3d
000000e0: 78b9 7dbd 72b0 963d a712 8d3d 43bc 42bd
000000f0: ec08 9abd 1383 703d 6e9a 2dbd a808 acbd
00000100: 10cd 1abd 54ae a4bc 4053 e8bc df33 80bd
00000110: b4f1 833d 38d4 0e3d fd90 b9bc 4ad2 9f3d
00000120: 6ced 82bb 7c37 ae3d 1f17 a5bd f37d 7c3c
00000130: 0a6b 8c3c 7a0d 55bd 1f80 f53d 4cc9 34bd
00000140: 89b8 c83d 3125 86bd f63a 5e3d 948b 6a3d
00000150: e24f 25bd c3ab 43bd 3899 debc 9ce0 f3ba
00000160: d03b 47bd de41 52bd a9da 5d3d a806 bb3d
00000170: 4461 97bc 62d5 753d c97e 383d dc99 8e3d
00000180: 07c4 03bd d47f 7e3c 7804 813d 1ad8 02bd
00000190: e136 e0bc 7bcc 963b ac8e d7bc d728 1ebd
000001a0: f4c1 2cbc 224e 5b3d a365 7dbd 1458 a1bd
000001b0: 7cfb b53c 24dd 85bc fb6d 753d 5ac2 cd3c
000001c0: 01bd 40bd 3d00 5dbd 3b28 31bb 3f2f 45bc
000001d0: 8baf 863c 1b63 853d 76bd a73d 14d7 173d
000001e0: cdcc e33d aab6 3a3b c4eb 833b ca45 debc
000001f0: bba7 f83a f996 9e3d 6409 a33d 6a13 2abd
00000200: 01cb f03c a358 ea3c c4c6 173d 7d1f 553d
00000210: 147e 963d 5043 dabc 64dd 4fbd 4b65 ec3c
00000220: a74b 403d 5b89 433c d744 7a3d 65b1 b6bd
00000230: e32c 70bd d354 96bd 4411 b3bc 169e 85bd
00000240: c8fa cfbc e848 13bc 0188 4d3d 68a8 11bd
00000250: 0d2b 8cbd 3921 6bbd 8ddb 3f3d be15 a6bd
00000260: fa21 adbd d816 403c 8947 b53d a651 96bd
00000270: 0f30 cb3b bdeb 083c c99b 4b3d 01c7 b23d
00000280: 5aa7 2ebd 8223 413d c273 5a3d 3e92 803d
00000290: c63b cb3c 7cb0 273d 8a0f d83d c015 c6bc
000002a0: eddb db3c 12b7 393d 1daf d63d b5b1 a73d
000002b0: c20c 303d dc93 8bbc 7713 16bd d693 bc3d
000002c0: c9c7 893d 965e bd3d bfaa bb3d e23d e43d
000002d0: a49e 863d f357 f5bc 1326 823a 9f80 82bc
000002e0: a772 d53d 3229 8ebc cabe d13d 6109 873d
000002f0: 8f9b 1b3d 400d 32bd 22ad 18bd a444 3f3d
00000300: c683 d2bc 65a7 2abd c327 da3c 9a18 28bd
00000310: 9e05 5fbd 341e 903d d7f7 b93d 42cd 893d
00000320: e12c bc3d 6538 393d 861e 963d b6ad 54bc
00000330: 7393 363d 55da c03d db13 aa3d ad97 c03d
00000340: 2722 653c d4e7 8ebd e1b8 f43c 03b8 59bc
00000350: a42d d43d d897 bc3d f324 8bbc 0fd4 84bd
00000360: 0bc7 5a3b f23d 303d eec1 b53d 0bd5 2e3d
00000370: bec8 ea3c abe7 8bbd d309 3ebd 1e9d 27bd
00000380: 53f3 8cbd fc16 5e3b 0427 cfbc dc45 3d3d
00000390: cad0 0f3d 258e 9e3c 5837 583d cfe5 cb3d
000003a0: fc2a 233d e35b 8bbd 021f 6fbd edad 163d
000003b0: 4063 39bd 42bb 3dbd 6260 0cbd 5881 6d3d
000003c0: 0fc7 a43d 395f 47bd afdb 98bc 5bd4 bb3c
000003d0: 88a0 4e3d f60a 993c 953c 4b3d 3e5e 963c
000003e0: eba9 103d b1e9 64bd 4123 90bc c0cc 493d
000003f0: 14ad 3e3d 1723 4cbd cdae b33d 129f 9c3d

lstm.weight_hh_l0 f4 [512, 128]
0.029300425 0.099841885 -0.0034522526 -0.06190679 -0.07029875 0.095737025 -0.051459324 -0.06500431
0.050177675 0.0582934 0.101305254 -0.071583495 0.07799401 0.069240145 -0.07634842 0.028578145
0.0012552772 0.07127728 0.09434518 0.031762533 -0.035771307 0.07233049 -0.010795243 0.0013892021
-0.044486243 0.04717424 0.027224086 0.05845591 0.105371594 -0.033855036 -0.017111462 0.056133248
-0.042653114 -0.022471186 -0.055111837 0.03157937 0.05902697 -0.008562335 -0.041979436 -0.06070997
0.08072619 0.07807215 0.02881344 0.011503536 -0.05332565 0.05684526 0.042228885 -0.027652087
0.032712627 -0.045653734 0.042864878 -0.021235507 -0.06509099 0.046223868 -0.0036266241 -0.07697942
0.020085063 -0.07230625 -0.012775219 -0.0403474 0.0629327 0.056516297 0.08385757 -0.019154575
-0.059728336 -0.012356783 -0.075664125 0.03693567 0.008217442 0.076437816 0.004952838 0.014087442
-0.03143442 -0.075226784 0.007638492 -0.022247076 -0.007630298 -0.06943905 -0.042478576 0.021020917
0.057883978 0.012079369 0.06374645 -0.008897123 0.066325784 -0.09275246 0.033536427 0.010747251
0.066431165 0.096228614 -0.09797483 0.027547894 -0.07153725 -0.022384439 -0.0330155 0.034062013
0.025805378 -0.08147297 0.06094542 -0.038999043 -0.052662864 -0.029881848 -0.108429715 0.04758848
-0.01590317 -0.027160613 -0.049744487 -0.10956314 0.05223219 -0.0041300016 -0.071209915 0.005793758
0.030825567 0.08134283 0.0505435 -0.018067127 0.030905426 -0.044051006 0.06395329 -0.065546274
-0.023049489 -0.0039741523 0.041571993 0.02625315 -0.07105231 0.08442505 -0.03561102 -0.061142888
-0.10153242 0.086200505 -0.02646918 0.07010627 0.055861942 0.054436207 0.019137831 0.060997438
0.01074375 0.006707825 0.036322515 -0.07756477 -0.02829879 -0.013123518 0.018353129 0.104885556
-0.039192546 0.023588493 -0.042219274 0.047434885 0.07065015 -0.036803406 -0.059823267 0.084012635
0.04833811 -0.00688596 0.08894506 -0.07935817 0.101743616 0.057756092 0.079493865 -0.05752091
-0.060592316 0.071005635 -0.026585918 0.0626339 -0.007162701 -0.06284388 -0.02717171 -0.09895676
-0.025257634 0.029881468 0.012861967 0.053980954 -0.022892287 -0.0039185113 -0.097267486 -0.057067867
0.020923706 -0.005406453 -0.047489595 0.04849339 -0.025390564 0.07175517 -0.06773108 0.050604206
0.056855865 0.04967193 0.055866916 -0.079341106 0.0064907013 -0.06634098 0.024813198 0.030756176
-0.050733656 -0.06047961 -0.023692582 0.028255869 0.074288405 -0.07301 0.0245049 0.075170115
0.019708179 0.06213302 0.048789103 -0.016660184 -0.06175525 -0.057338055 -0.009194367 0.08805128
0.020162847 -0.03307887 -0.084982656 -0.0028157015 -0.104421765 0.0514438 0.060619313 -0.06181242
0.04511485 -0.046834297 -0.06285306 -0.05686311 -0.027626695 0.05151838 -0.04238052 -0.07625028
0.08768882 0.023848364 -0.031543344 0.011000162 -0.02889478 0.067126974 0.01586332 0.026851641
0.022614835 0.041553814 -0.054388683 -0.09315797 -0.019194605 -0.10096589 0.038908143 -0.013577597
-0.005638499 0.06934191 -0.05572527 -0.08088808 0.0454069 -0.020937918 0.069078766 -0.06977486
-0.035221703 0.06754248 -0.09976935 0.026300818 0.0031352052 0.08153051 0.010366606 -0.0051516467
00000000: 7207 f03c e779 cc3d 303f 62bb f991 7dbd
00000010: cbf8 8fbd c611 c43d 03c7 52bd fb20 85bd
00000020: 1b87 4d3d 0fc5 6e3d 2179 cf3d 5e9a 92bd
00000030: 53bb 9f3d c7cd 8d3d 8f5c 9cbd b71c ea3c
00000040: 1d88 a43a d3f9 913d 0c38 c13d 6e19 023d
00000050: ef84 12bd 0222 943d 88de 30bc e315 b63a
00000060: 3537 36bd c739 413d 0c05 df3c 776f 6f3d
00000070: 10cd d73d 94ab 0abd 562d 8cbc faeb 653d
00000080: 08b5 2ebd 7e15 b8bc f3bc 61bd 5f59 013d
00000090: 44c6 713d 0949 0cbc a1f2 2bbd 04ab 78bd
000000a0: c653 a53d 4be4 9f3d 2a0a ec3c 5479 3c3c
000000b0: ff6b 5abd 93d6 683d 32f8 2c3d a186 e2bc
000000c0: adfd 053d 69ff 3abd 1593 2f3d 16f6 adbc
000000d0: 6d4e 85bd 3d55 3d3d a8ac 6dbb 63a7 9dbd
000000e0: 6e89 a43c 4d15 94bd 274f 51bc 5143 25bd
000000f0: dce2 803d a27d 673d 85bd ab3d 0eea 9cbc
00000100: b3a5 74bd 1b74 4abc cbf5 9abd db49 173d
00000110: 73a2 063c 6e8b 9c3d 6b4b a23b 04cf 663c
00000120: 61c1 00bd 8010 9abd 514c fa3b 803f b6bc
00000130: 9407 fabb 1036 8ebd 04fe 2dbd 0f34 ac3c
00000140: c017 6d3d 8ce8 453c 808d 823d 3dc5 11bc
00000150: d0d5 873d 00f5 bdbd 7e5d 093d 3d15 303c
00000160: 100d 883d 8213 c53d 07a7 c8bd 1fac e13c
00000170: 1f82 92bd 925f b7bc 433b 07bd 9c84 0b3d
00000180: cd65 d33c 4ddb a6bd e8a1 793d 76bd 1fbd
00000190: 04b5 57bd c7ca f4bc 6610 debd 23ec 423d
000001a0: 5d47 82bc ef7f debc e0c0 4bbd a462 e0bd
000001b0: 6cf1 553d f754 87bb 81d6 91bd 91d9 bd3b
000001c0: e685 fc3c 1297 a63d b306 4f3d 8301 94bc
000001d0: 602d fd3c d46e 34bd f1f9 823d 203d 86bd
000001e0: 48d2 bcbc 9b39 82bb 6547 2a3d d910 d73c
000001f0: e083 91bd 0ae7 ac3d dcdc 11bd f770 7abd
00000200: 3bf0 cfbd e489 b03d e5d5 d8bc e093 8f3d
00000210: 7ecf 643d 80f8 5e3d f1c6 9c3c 73d8 793d
00000220: 8e06 303c 51cd db3b ebc6 143d 47da 9ebd
00000230: ddd2 e7bc 0604 57bc 4d59 963c 3dce d63d
00000240: 5d88 20bd a83c c13c 1eee 2cbd 154b 423d
00000250: 07b1 903d 2bbf 16bd 3e09 75bd d10e ac3d
00000260: 2ffe 453d 9fa3 e1bb d428 b63d 8986 a2bd
00000270: f55e d03d a791 6c3d aecd a23d 0c9b 6bbd
00000280: a62f 78bd 676b 913d b6ca d9bc 3446 803d
00000290: 17b5 eabb 4bb4 80bd 3597 debc d7a9 cabd
000002a0: 19e9 cebc fbc9 f43c 00bb 523c 221b 5d3d
000002b0: 9b88 bbbc db66 80bb 2d34 c7bd ffbf 69bd
000002c0: 3168 ab3c 9d28 b1bb 7384 42bd 01a1 463d
000002d0: dfff cfbc 60f4 923d 98b6 8abd 5b46 4f3d
000002e0: b2e1 683d cb74 4b3d b5d4 643d 977d a2bd
000002f0: f3af d43b c8dd 87bd 0c45 cb3c 60f4 fb3c
00000300: 18ce 4fbd 78b9 77bd f216 c2bc da78 e73c
00000310: 8524 983d 4486 95bd 80be c83c caf2 993d
00000320: 0c73 a13c 327f 7e3d 15d7 473d f07a 88bc
00000330: 13f3 7cbd 4fdb 6abd f8a3 16bc 3b54 b43d
00000340: 8e2c a53c b67d 07bd 630b aebd a287 38bb
00000350: 14db d5bd bcb6 523d f54b 783d 052f 7dbd
00000360: 59ca 383d 52d5 3fbd 1bb9 80bd 4be9 68bd
00000370: 6151 e2bc f004 533d 3297 2dbd 1b29 9cbd
00000380: 3296 b33d a55d c33c 9833 01bd 063a 343c
00000390: bfb4 ecbc de79 893d cbf3 813c f9f7 db3c
000003a0: bf42 b93c 5534 2a3d abc6 5ebd 9bc9 bebd
000003b0: 013e 9dbc 34c7 cebd 255e 1f3d 9274 5ebc
000003c0: 28c3 b8bb 2203 8e3d 2e40 64bd a6a8 a5bd
000003d0: 96fc 393d ff85 abbc 2b79 8d3d 1fe6 8ebd
000003e0: a244 10bd b653 8a3d df53 ccbd d074 d73c
000003f0: 0478 4d3b 78f9 a63d b2d8 293c 25cf a8bb

lstm.bias_ih_l0 f4 [512]
-0.0419753 0.035257358 0.06587255 0.061809804 0.06400264 0.016408863 -0.048545346 -0.06853749
0.028912006 0.036090665 -0.0625874 -0.068622105 -0.06346898 0.08025997 0.045543436 -0.06726588
-0.06927081 -0.0387087 -0.06657081 0.054067638 -0.009903902 -0.0117266625 0.042699315 0.04905571
0.06451668 -0.042602867 -0.042246956 -0.016778195 0.057053804 -0.025579777 -0.076543726 -0.026994564
-0.03429454 -0.022732887 0.025202094 0.092593804 0.066467844 0.01643013 0.058050502 -0.060206853
0.10767911 -0.058163475 -0.061604965 0.076750696 0.03557724 0.063406885 0.10119061 0.064856976
-0.006718136 0.043836348 -0.031066306 -0.072834164 0.08737959 0.052789666 -0.046291236 0.0040650927
0.050501615 0.08938893 -0.017975656 0.09214233 -0.020304238 0.029360808 -0.042544186 0.07063694
0.085621 0.10938256 -0.046299014 0.10342105 -0.052805036 -0.032944594 -0.054030057 -0.008104302
-0.060380116 0.008578416 0.014975563 0.049565274 -0.042193815 -0.02519834 0.03787522 0.07662298
0.046200518 -0.066898435 0.09707497 -0.08313622 -0.011514347 -0.01923535 0.06006089 -0.03116567
-0.01352989 -0.056788143 0.046031278 0.038088366 -0.0045840275 0.0046879244 -0.0070345616 0.018077033
-0.07103317 0.010042165 -0.062414795 -0.015106045 0.0538184 0.0015804765 0.07439231 -0.02058754
-0.053937007 0.061084904 -0.03801408 0.016076554 0.07208634 -0.040708356 -0.029841358 0.05713954
0.0507896 -0.051978406 0.038353354 -0.067695886 -0.03651469 0.032056637 0.055926275 0.06192309
-0.0074318573 0.06966234 0.0018164362 0.006827187 0.08366265 -0.0316869 -0.017289646 -0.07181142
0.09928348 -0.05476428 0.010288408 0.1031535 0.032553013 -0.051587664 -0.07068662 0.06711732
-0.05698901 -0.03491367 0.111845315 0.027786419 0.043228883 -0.005923876 0.103369944 0.015976723
-0.06497862 0.0022275958 0.0073244204 -0.059187043 -0.047801275 0.07822752 -0.03310432 0.046633735
-0.044484872 -0.047997553 0.063221715 0.0007545792 0.020386482 0.0028199432 -0.00529491 -0.018893274
-0.016827065 -0.044485874 0.050144866 -0.0030342294 0.043392394 0.06847724 -0.052056987 0.041259453
0.08704289 -0.015776418 0.028443724 -0.009022815 0.070667356 0.08545585 -0.051438544 0.086016566
-0.0380658 0.0075501082 0.010601258 -0.062253438 -0.06567896 0.023152955 0.08570986 -0.010880981
-0.033312358 -0.016073758 -0.004877729 -0.0010622801 0.01245558 -0.035751652 0.108056076 0.083446234
0.05916923 -0.05570101 -0.07577817 -0.041685205 0.026400251 0.073222294 -0.027454799 0.05012139
0.07802917 0.07181412 0.086704165 0.04875108 0.032850903 0.08700221 0.00481378 -0.061429456
0.09826425 0.07587587 0.05725675 -0.07254551 -0.012223892 -0.05715491 0.02823697 0.07344443
0.11178164 0.06929153 -0.0725279 0.12004282 0.05475933 -0.008423131 -0.01874257 -0.0061881244
0.063415036 -0.025517657 0.079097204 0.0886863 0.06670031 0.04620352 0.07833638 0.100151606
-0.050033685 0.015341452 -0.06052754 -0.06596729 0.029173113 0.0024090114 -0.053658858 -0.0020158254
0.09086228 0.074892156 0.038402382 -0.047625177 -0.04282058 -0.043933183 0.017667653 0.014661096
0.08969296 0.018708942 -0.0030019158 0.024650032 0.02374096 0.021310367 0.019450977 0.09936059
00000000: 4bee 2bbd 056a 103d 30e8 863d 472c 7d3d
00000010: d113 833d e16b 863c 7cd7 46bd 625d 8cbd
00000020: dfd8 ec3c ced3 133d d32d 80bd bf89 8cbd
00000030: 06fc 81bd 575f a43d c18b 3a3d b2c2 89bd
00000040: dbdd 8dbd 048d 1ebd 4756 88bd 0776 5d3d
00000050: fa43 22bc 3021 40bc 7ae5 2e3d a4ee 483d
00000060: 5221 843d 5880 2ebd 250b 2dbd 6d72 89bc
00000070: 40b1 693d ae8c d1bc f5c2 9cbd b423 ddbc
00000080: 6e78 0cbd 523a babc 9f74 ce3c d2a1 bd3d
00000090: 4b20 883d 7b98 863c 5dc6 6d3d 769b 76bd
000000a0: dd86 dc3d d33c 6ebd 7d55 7cbd 782f 9d3d
000000b0: 71b9 113d 78db 813d 063d cf3d bcd3 843d
000000c0: cf23 dcbb be8d 333d c47e febc 142a 95bd
000000d0: 12f4 b23d fa39 583d e19b 3dbd 7834 853b
000000e0: c8da 4e3d 8b11 b73d af41 93bc 1eb5 bc3d
000000f0: 1355 a6bc 1486 f03c d042 2ebd 1aaa 903d
00000100: 105a af3d f703 e03d 09a4 3dbd 6ace d33d
00000110: 184a 58bd e9f0 06bd 9f4e 5dbd e8c7 04bc
00000120: 2451 77bd 7c8c 0c3c 105c 753c f504 4b3d
00000130: 6cd3 2cbd c06c cebc 0c23 1b3d 82ec 9c3d
00000140: c13c 3d3d 0c02 89bd 3ecf c63d 5343 aabd
00000150: aca6 3cbc 7493 9dbc 6802 763d 264f ffbc
00000160: 79ac 5dbc af9a 68bd 4b8b 3c3d 8c02 1c3d
00000170: 9c35 96bb 299d 993b 2e82 e6bb 4916 943c
00000180: d779 91bd e587 243c a8a6 7fbd 587f 77bc
00000190: af70 5c3d fe27 cf3a ff5a 983d 33a7 a8bc
000001a0: 0ded 5cbd 2a34 7a3d a7b4 1bbd fab2 833c
000001b0: 01a2 933d cebd 26bd dd75 f4bc 260b 6a3d
000001c0: c108 503d 4fe7 54bd 6818 1d3d 24a4 8abd
000001d0: 6d90 15bd d24d 033d f312 653d 11a3 7d3d
000001e0: f086 f3bb 21ab 8e3d 7c15 ee3a 98b6 df3b
000001f0: 5357 ab3d 1fca 01bd 04a3 8dbc de11 93bd
00000200: 2355 cb3d 8250 60bd b690 283c 2442 d33d
00000210: 4f56 053d 964d 53bd 26c4 90bd ce74 893d
00000220: 4f6d 69bd a301 0fbd 280f e53d 58a0 e33c
00000230: c510 313d 131d c2bb 9fb3 d33d 9ee1 823c
00000240: 8313 85bd dbfc 113b b101 f03b 1d6e 72bd
00000250: 45cb 43bd c035 a03d 6598 07bd 0403 3f3d
00000260: c535 36bd 1599 44bd 637a 813d f4ce 453a
00000270: 8d01 a73c ccce 383b ed80 adbb 11c6 9abc
00000280: ead8 89bc d236 36bd b464 4d3d ecd9 46bb
00000290: 39bc 313d cc3d 8c3d b539 55bd acff 283d
000002a0: 8b43 b23d 8c3d 81bc d002 e93c 6ed4 13bc
000002b0: 0cba 903d 7a03 af3d 39b1 52bd 7429 b03d
000002c0: e2ea 1bbd e666 f73b e6b0 2d3c 76fd 7ebd
000002d0: b182 86bd 44ab bd3c a788 af3d 2446 32bc
000002e0: 8a72 08bd 1dad 83bc 5bd5 9fbb 353c 8bba
000002f0: 7d12 4c3c 5370 12bd 814c dd3d dce5 aa3d
00000300: 6f5b 723d be26 64bd 9631 9bbd 1bbe 2abd
00000310: 5745 d83c 92f5 953d e3e8 e0bc 164c 4d3d
00000320: c2cd 9f3d 4813 933d f491 b13d 36af 473d
00000330: ab8e 063d 372e b23d eabc 9d3b 749d 7bbd
00000340: c43e c93d cf64 9b3d 0e86 6a3d be92 94bd
00000350: b846 48bc 441b 6abd 3851 e73c 096a 963d
00000360: c6ed e43d b8e8 8d3d 8289 94bd 03d9 f53d
00000370: 524b 603d 2c01 0abc 058a 99bc c0c5 cabb
00000380: bedf 813d 680a d1bc b7fd a13d 2aa1 b53d
00000390: 2c9a 883d e73f 3d3d d36e a03d 491c cd3d
000003a0: 1ff0 4cbd b75a 7b3c baeb 77bd dc19 87bd
000003b0: 74fc ee3c 81e0 1d3b 64c9 5bbd f01b 04bb
000003c0: 0116 ba3d 0f61 993d d14b 1d3d 9e12 43bd
000003d0: a264 2fbd 48f3 33bd c1bb 903c 1835 703c
000003e0: f1b0 b73d 7f43 993c cabb 44bb ddee c93c
000003f0: 677c c23c 1493 ae3c a857 9f3c 917d cb3d

lstm.bias_hh_l0 f4 [512]
0.060191166 0.049285617 0.016411347 -0.0535643 0.007435742 0.018122375 0.07065596 -0.01668746
0.06317326 -0.009519058 0.08683379 -0.038771376 0.057540726 0.027802182 0.0595472 -0.017123438
-0.044708524 -0.009718904 0.0025557536 0.02880444 0.013414856 0.08353215 0.021941679 -0.015764896
0.029184088 -0.0017348737 0.019013263 0.028256977 -0.021981793 0.035937976 -0.028088244 0.023634773
0.08921935 0.058802273 -0.0758388 -0.0047906 0.042621903 -0.0013995473 -0.022142824 -0.06007725
-0.0114001315 0.02776462 -0.071118005 0.018863294 0.09542647 0.066696614 0.05610345 0.032895733
-0.019190313 -0.08566418 -0.010158319 -0.05295411 0.07363173 0.06657668 0.011268807 0.090614095
0.023521222 -0.05487679 -0.011602655 -0.027387938 0.060657993 -0.053388678 -0.06884189 -0.02179883
0.040788524 0.024874728 -0.039181318 0.012297541 0.06653149 -0.07239321 0.051978026 0.023043016
0.009097542 0.11034386 0.08514393 0.063213356 0.07285773 -0.0054402146 0.075002775 -0.023125608
0.029588653 0.084060624 0.01902179 0.0013491493 -0.02262923 0.08315443 -0.04988532 -0.021835875
0.09556016 -0.04623906 0.05264018 0.06424173 -0.04072452 0.09255252 0.088139094 0.014777919
0.022637581 0.023512537 -0.01652627 0.039950915 -0.04748154 0.04254105 -0.02429539 0.08209517
0.10123322 -0.06400664 -0.024161749 -0.0670343 0.058056697 0.10837634 0.07748983 0.035383523
0.100559995 0.041457105 -0.014857195 0.103191964 -0.020539565 -0.06254814 0.01944505 -0.067905486
0.08431913 0.08282167 0.014319165 0.079795554 0.095230825 0.09523231 -0.01788392 -0.0002894837
-0.043865185 -0.04717449 0.06574738 0.0022221548 0.07582202 0.03520312 -0.048785064 0.028881183
0.061942667 -0.016461385 0.11146012 0.031056538 0.08078109 0.006442443 -0.04412972 0.05733966
0.087923594 0.039223675 -0.01429132 -0.051084537 -0.04967806 0.04808378 -0.005872434 0.03514733
0.08842421 0.06310986 0.051616862 0.09547035 -0.032300804 0.015666293 -0.022387639 -0.039541826
0.05456548 0.024198039 0.02049963 -0.04098472 -0.051094588 0.045722608 0.055412658 0.025734229
-0.019859316 0.036512587 -0.026993515 0.028536724 0.06210221 -0.027454002 0.097598635 -0.006521947
0.04716424 -0.013991835 -0.03162351 -0.041911736 0.035836395 0.039109178 -0.019507734 0.04720599
0.083331205 0.03536863 0.020074997 -0.04677657 0.040912792 -0.034672093 -0.06817755 0.061354596
0.041876543 0.107596606 0.075868666 -0.0581276 0.058477513 -0.05991025 0.041072227 -0.06410948
-0.03655549 -0.013311187 0.018864805 0.10749568 0.06484883 0.0028385457 0.0023177091 0.08197001
0.0860686 0.06496194 -0.015686678 -0.04761684 0.10557674 0.034331523 -0.02390233 0.0882841
0.09807472 -0.052934315 0.08989158 -0.020830743 0.0593585 0.10944083 -0.028834091 -0.061739523
0.0714385 -0.02404857 -0.036440972 0.09562765 0.059015796 -0.04052504 0.106839806 -0.05391547
0.015148741 0.06752024 0.09975055 -0.036340732 0.070183285 -0.013885078 0.06988575 -0.0064549157
0.032894984 -0.041964125 0.019635845 -0.026399791 0.044339254 0.024307596 0.11123749 -0.06694245
0.006291349 -0.048705123 0.052666314 0.018259661 -0.0006056812 -0.010295008 0.018125756 -0.06791835
00000000: 038b 763d b7df 493d 1771 863c 3d66 5bbd
00000010: 86a7 f33b 6075 943c 12b4 903d 24b4 88bc
00000020: fb60 813d d3f5 1bbc ead5 b13d bcce 1ebd
00000030: d3af 6b3d 67c1 e33c c4e7 733d 7446 8cbc
00000040: 4920 37bd 0a3c 1fbc 6e7e 273b 4af7 eb3c
00000050: fcc9 5b3c e712 ab3d 09bf b33c 6225 81bc
00000060: 7813 ef3c b464 e3ba b4c1 9b3c 2d7b e73c
00000070: 2913 b4bc b333 133d 5119 e6bc b69d c13c
00000080: a2b8 b63d a7da 703d 5f51 9bbd 77fa 9cbb
00000090: 4e94 2e3d 0471 b7ba de64 b5bc 9013 76bd
000000a0: 9ec7 3abc a172 e33c 51a6 91bd 3287 9a3c
000000b0: f46e c33d 3c98 883d bbcc 653d adbd 063d
000000c0: 0135 9dbc b470 afbd 146f 26bc 69e6 58bd
000000d0: 3ccc 963d 5b59 883d cda0 383c e293 b93d
000000e0: 94af c03c 7cc6 60bd 1019 3ebc ab5c e0bc
000000f0: 8474 783d 16ae 5abd fafc 8cbd 7693 b2bc
00000100: de11 273d 16c6 cb3c 977c 20bd a07b 493c
00000110: a941 883d e442 94bd e9e6 543d b5c4 bc3c
00000120: db0d 153c f6fb e13d f15f ae3d 0176 813d
00000130: 6f36 953d d443 b2bb 0e9b 993d ea71 bdbc
00000140: e763 f23c fa27 ac3d 96d3 9b3c f0d5 b03a
00000150: ef60 b9bc df4c aa3d 8d54 4cbd 26e1 b2bc
00000160: 0cb5 c33d 2b65 3dbd 3b9d 573d 2b91 833d
00000170: c1ce 26bd 2d8c bd3d 4582 b43d 161f 723c
00000180: 7372 b93c 5d9d c03c 1a62 87bc 92a3 233d
00000190: 017c 42bd 863f 2e3d 2007 c7bc 8321 a83d
000001a0: 5d53 cf3d ea15 83bd dcee c5bc 4749 89bd
000001b0: dccc 6d3d 6af4 dd3d fdb2 9e3d 50ee 103d
000001c0: 66f2 cd3d edce 293d 986b 73bc 4f56 d33d
000001d0: 9742 a8bc 3d19 80bd 3a4b 9f3c 0812 8bbd
000001e0: 82af ac3d 689e a93d ee9a 6a3c da6b a33d
000001f0: 6108 c33d 2809 c33d 4c81 92bc d8c5 97b9
00000200: fbab 33bd 0a3a 41bd 90a6 863d 92a1 113b
00000210: 9348 9b3d 2631 103d d9d2 47bd 3b98 ec3c
00000220: 98b7 7d3d 07da 86bc 3445 e43d 486a fe3c
00000230: 8e70 a53d 211b d33b 5ec1 34bd fedc 6a3d
00000240: 4911 b43d 01a9 203d 2426 6abc 053e 51bd
00000250: 397b 4bbd 7ff3 443d 8c6d c0bb a6f6 0f3d
00000260: c117 b53d be3f 813d 346c 533d f585 c33d
00000270: d94d 04bd 9956 803c 4866 b7bc 9cf6 21bd
00000280: 0e80 5f3d f73a c63c d7ee a73c 98df 27bd
00000290: 8f48 51bd a147 3b3d 62f8 623d 97d0 d23c
000002a0: 01b0 a2bc 398e 153d 8121 ddbc d9c5 e93c
000002b0: e35e 7e3d 37e7 e0bc cbe1 c73d 0fb6 d5bb
000002c0: 4a2f 413d 023e 65bc a787 01bd a4ab 2bbd
000002d0: 2fc9 123d f230 203d afce 9fbc 115b 413d
000002e0: 8da9 aa3d b2de 103d 5274 a43c ca98 3fbd
000002f0: 2c94 273d 5304 0ebd aca0 8bbd f54e 7b3d
00000300: bd86 2b3d 9c5b dc3d 0861 9b3d 3517 6ebd
00000310: 1e86 6f3d 7364 75bd 5a3b 283d d54b 83bd
00000320: 36bb 15bd 2a17 5abc 5d8a 9a3c b226 dc3d
00000330: 77cf 843d e506 3a3b b5e4 173b e5df a73d
00000340: bc44 b03d c40a 853d 5981 80bc e009 43bd
00000350: 9e38 d83d 369f 0c3d d2ce c3bc 4bce b43d
00000360: 66db c83d a7d1 58bd 1419 b83d 3ca5 aabc
00000370: e621 733d 8422 e03d 7935 ecbc 95e2 7cbd
00000380: 594e 923d 8201 c5bc 2143 15bd 6ed8 c33d
00000390: 8cba 713d 96fd 25bd d4ce da3d 78d6 5cbd
000003a0: 6d32 783c 0d48 8a3d 044a cc3d 05da 14bd
000003b0: 41bc 8f3d 3d7e 63bc 4320 8f3d c283 d3bb
000003c0: e4bc 063d 93e2 2bbd 5adb a03c 6044 d8bc
000003d0: 149d 353d b920 c73c 7bd0 e33d 2019 89bd
000003e0: a927 ce3b 067f 47bd a2b8 573d 4995 953c
000003f0: 94c6 1eba 65ac 28bc 777c 943c c718 8bbd

classifier.1.weight f4 [14, 128]
0.062466986 -0.038816553 -0.08625195 -0.04034089 0.015525073 -0.09462293 0.0018320304 -0.06267603
0.00647076 0.041948996 0.053838532 -0.04555549 -0.07876668 -0.04554089 -0.038808037 0.01786396
-0.051638365 0.059433255 -0.034849707 0.015329727 0.07484087 0.06621997 -0.052065685 0.0038282136
-0.02915969 -0.021563761 -0.08272478 -0.05802878 0.0050696004 -0.03139407 -0.02848123 -0.030931678
0.09425397 -0.07525484 0.049671933 -0.04611591 0.012196328 0.04538031 -0.062202517 0.010448561
-0.0039429776 -0.07160284 0.015146522 0.00019585912 -0.024941972 0.0013023143 -0.02824337 -0.05722387
0.05192615 0.098557726 0.06725265 -0.010748345 -0.05617672 0.03661355 -0.047225606 -0.07374791
-0.08302539 -0.088601924 0.044870872 0.0005234612 0.047903184 -0.086595885 -0.03640736 0.08105548
0.01878013 0.027889805 -0.0601527 0.08278083 0.02875867 -0.06649076 -0.053707644 -0.06275771
0.076260686 -0.043798003 0.04906386 0.05053728 0.0813971 -0.069763586 -0.053030066 0.04594661
0.09428957 -0.0010146953 -0.045126766 -0.043277815 0.030416744 0.091977224 -0.08717362 0.051578946
-0.06937896 0.012277757 0.02750478 -0.0906414 -0.05709469 -0.023456447 0.06258227 0.066235036
0.010488769 0.080558725 -0.07310678 -0.015994234 0.06745938 -0.029997814 -0.0723392 0.065608926
-0.08213519 0.0022344787 0.05858796 0.08206273 -0.034614775 0.03982436 -0.05835555 0.06712975
0.036483962 0.07097337 0.027235426 0.05115336 0.04625982 4.4158325e-05 -0.0053889793 0.05932618
-0.038954604 0.031737246 -0.033206966 -0.061155282 0.03207652 0.06907609 0.026047947 -0.026024573
-0.06152597 0.015120907 -0.022425925 0.021328382 0.03565397 -0.095605105 0.07850829 -0.0031147918
0.024871675 0.0800227 -0.073099494 0.024838345 0.023405395 0.044227347 0.09427252 -0.06878549
-0.069533594 0.04365346 0.065876186 0.07920103 -0.014891833 -0.05423022 -0.057947803 -0.04117684
-0.007751384 -0.0141074285 -0.044823974 -0.09440284 0.036857367 0.024263108 -0.021383898 -0.05139375
0.004905657 0.065804146 0.0017087858 -0.059067495 -0.08142576 -0.02197049 0.028021377 0.09226328
-0.0131706195 0.07332411 -0.08705755 -0.08635649 0.09105114 -0.075553246 -0.07436643 -0.01931184
-0.03666786 0.032354433 0.047982607 -0.034391146 -0.08027583 -0.015096065 -0.08049221 -0.04289424
-0.011668981 -0.07103406 0.005022606 0.07924295 -0.0036358265 -0.088918336 0.01596997 -0.07370003
-0.032862943 -0.025597004 -0.07445669 0.034441076 0.05183006 -0.005460847 0.028315602 -0.072361365
-0.073389485 0.019149099 0.02610075 -0.055234265 0.033103045 0.0163655 -0.075818926 0.074992485
0.050827343 0.00896675 -0.03816486 0.006576733 0.036423583 0.013988496 0.07957174 -0.093991295
0.071837924 0.038409855 -0.01756238 -0.041720353 0.062130153 0.019915102 -0.0269778 -0.07355145
0.025306134 -0.03127798 0.05611501 0.07298673 0.08298107 0.053582072 0.07726895 -0.047411293
-0.06936987 0.020357236 -0.07412901 -0.07403002 -0.060361326 0.03174795 -0.037620783 -0.0101513155
0.049607065 -0.021571757 -0.044145618 -0.06282673 0.09483161 0.06658061 0.033021804 0.023200357
0.054723427 -0.0024485365 0.092722215 -0.025622157 -0.01580251 -0.008429118 0.013899106 0.03972723
00000000: 62dd 7f3d 1bfe 1ebd dda4 b0bd 7d3c 25bd
00000010: e05c 7e3c abc9 c1bd bd20 f03a 4a5c 80bd
00000020: ab08 d43b b6d2 2b3d cb85 5c3d 6598 3abd
00000030: 6d50 a1bd 1689 3abd 2df5 1ebd 7057 923c
00000040: c082 53bd 4970 733d 91be 0ebd 8929 7b3c
00000050: 2c46 993d 569e 873d d442 55bd c4e2 7a3b
00000060: 4de0 eebc 7ca6 b0bc 9c6b a9bd 96af 6dbd
00000070: e41e a63b 1197 00bd 7851 e9bc 6e64 fdbc
00000080: 3a08 c13d 361f 9abd cc74 4b3d 09e4 3cbd
00000090: 1bd3 473c b4e0 393d 11c8 7ebd 7130 2b3c
000000a0: 1834 81bb 83a4 92bd 1e29 783c 885f 4d39
000000b0: 1b53 ccbc 6bb2 aa3a a45e e7bc 9463 6abd
000000c0: 84b0 543d a2d8 c93d c2bb 893d d419 30bc
000000d0: 8f19 66bd 17f8 153d a36f 41bd 2509 97bd
000000e0: 3709 aabd ed74 b5bd 85ca 373d e338 093a
000000f0: 2136 443d 2f59 b1bd e21f 15bd 6a00 a63d
00000100: cad8 993c 2979 e43c ad62 76bd ff88 a93d
00000110: 4d97 eb3c 4f2c 88bd 8cfc 5bbd 1d87 80bd
00000120: 902e 9c3d 8965 33bd 30f7 483d 2e00 4f3d
00000130: 86b3 a63d 36e0 8ebd 0e36 59bd 8332 3c3d
00000140: e41a c13d 86ff 84ba d8d6 38bd 1444 31bd
00000150: 892c f93c 8e5e bc3d 1588 b2bd 7244 533d
00000160: 8e16 8ebd a528 493c b451 e13c 33a2 b9bd
00000170: 1fdc 69bd bc27 c0bc 222b 803d 3ca6 873d
00000180: 16d9 2b3c f9fb a43d 02b9 95bd 5706 83bc
00000190: 2528 8a3d fabd f5bc 9326 94bd f95d 863d
000001a0: 7f36 a8bd 5570 123b eef9 6f3d 8110 a83d
000001b0: 39c8 0dbd de1e 233d 3b06 6fbd 537b 893d
000001c0: 3570 153d 7c5a 913d d41c df3c 3086 513d
000001d0: f07a 3d3d a436 3938 0996 b0bb 0200 733d
000001e0: dd8e 1fbd eafe 013d 0704 08bd f67d 7abd
000001f0: ab62 033d c477 8d3d 8162 d53c 7c31 d5bc
00000200: a802 7cbd aebd 773c 93b6 b7bc dcb8 ae3c
00000210: e609 123d 9ccc c3bd f4c8 a03d 8921 4cbb
00000220: afbf cb3c f1e2 a33d 30b5 95bd c979 cb3c
00000230: acbc bf3c bc27 353d f311 c13d 68df 8cbd
00000240: a167 8ebd f8cd 323d 18ea 863d 2634 a23d
00000250: e0fc 73bc 8220 5ebd ad5a 6dbd 0ca9 28bd
00000260: 52ff fdbb d822 67bc 5899 37bd 4756 c1bd
00000270: c0f7 163d 6dc3 c63c 492d afbc 4182 52bd
00000280: a2bf a03b 53c4 863d 56f9 df3a c2f0 71bd
00000290: 8dc2 a6bd 75fb b3bc 168d e53c 88f4 bc3d
000002a0: 95c9 57bc f32a 963d 3b4b b2bd acdb b0bd
000002b0: 0579 ba3d a9bb 9abd 6d4d 98bd dd33 9ebc
000002c0: 0a31 16bd 1586 043d 6989 443d bbdd 0cbd
000002d0: a867 a4bd 7c55 77bc 1ad9 a4bd dfb1 2fbd
000002e0: 412f 3fbc 4e7a 91bd ac94 a43b 214a a23d
000002f0: 0c47 6ebb d11a b6bd 74d3 823c 0bf0 96bd
00000300: 4b9b 06bd cfb0 d1bc c07c 98bd 1612 0d3d
00000310: c24b 543d e8f0 b2bb 1ff6 e73c 3232 94bd
00000320: 3a4d 96bd 92de 9c3c 3dd1 d53c 533d 62bd
00000330: 0f97 073d f110 863c f446 9bbd a995 993d
00000340: 5530 503d 47e9 123c c252 1cbd a381 d73b
00000350: e530 153d 0130 653c 82f6 a23d 827e c0bd
00000360: c31f 933d a753 1d3d fbde 8fbc f6e2 2abd
00000370: 307c 7e3d ff24 a33c 8c00 ddbc 25a2 96bd
00000380: cf4e cf3c 571d 00bd dad8 653d 117a 953d
00000390: fbf1 a93d e078 5b3d 2f3f 9e3d 5832 42bd
000003a0: ca11 8ebd 38c4 a63c f3d0 97bd 0d9d 97bd
000003b0: 703d 77bd 230a 023d 4018 1abd b451 26bc
000003c0: c730 4b3d 41b7 b0bc 09d2 34bd 4dab 80bd
000003d0: 1337 c23d 6a5b 883d df41 073d ad0e be3c
000003e0: ac25 603d a077 20bb 25e5 bd3d 8fe5 d1bc
000003f0: 4474 81bc 491a 0abc 13b9 633c 05b9 223d

classifier.1.bias f4 [14]
0.0061009037 -0.091876976 -0.07956947 0.050756775 -0.056102294 0.041347716 0.009819245 0.07939629
0.08040356 -0.05780745 -0.019068433 -0.033725996 -0.038476255 0.025837755
00000000: 17ea c73b ff29 bcbd 51f5 a2bd 56e6 4f3d
00000010: 85cb 65bd 395c 293d e6e0 203c 869a a23d
00000020: 9faa a43d 81c7 6cbd 6735 9cbc 4524 0abd
00000030: 4799 1dbd b3a9 d33c
