WiFi-CSI-Transfer-Learning/har_pretrained.pth (torch, 354138 bytes, 10 tensors)

encoder.0.weight f4 [16, 1, 12]
00000000: dd6b 52ba f0ce 3b3e d8f3 793e 9ccf 51be
00000010: 9749 34bd ac56 8b3e 6117 263e a21b 27be
00000020: f5a1 a03d 58cc 23be 1837 6b3e 44eb 92be
00000030: 6907 35be d06a 7abe 1195 64be b8ec 7ebe
00000040: 21c1 2a3d 15bb b9bd 56b0 893c 794b 9ebe
00000050: 9144 213e ade3 233e 830a 16bc b1a3 37be
00000060: 425f 43be c2c2 363e 3bf5 043e 1687 31be
00000070: 4043 82be 13b7 0c3e 22b9 fb3d c49c 6cbe
00000080: f2bc 0c3e 8116 8b3e 6478 643d 947b 2b3e
00000090: 7b11 543d 5b7e 74be 0e19 3a3e e7d1 a53c
000000a0: d1b4 51bb ca3f 403c 37da 593e 58df 8c3e
000000b0: b1ea c73d 7c80 e9bd 3d2a 4c3e 841f 86be
000000c0: 4a7f 393e d50e 3b3d f328 853e 1092 a3bd
000000d0: 2b2a c4bc f699 8d3e 77d6 97be 281e fabc
000000e0: 6ab3 113d c3d7 dc3d 5467 d73d ab9a c93d
000000f0: 9614 273e c3d6 69be aa8c bdbd 224f 9dbe
00000100: 3500 37be b1f0 4dbe d1ee 573e 0d42 723d
00000110: 559a 43be fae8 b3bd a41d 983d d22b 4ebb
00000120: 4f5f a9bd 47c9 05be 2622 733d c8c3 dabc
00000130: 9c07 9c3e b636 5abe 6299 953e 1e83 583c
00000140: ec80 863e edce 813e bf84 e13d 9c6a a4bd
00000150: 11c2 afbd c0ff 173e 882f 623e 3432 293e
00000160: 7bdc 8abe 6dc2 a73d e931 dc3d cada 70be
00000170: 1466 a23d e6e2 833e 76dc f3bd eb00 4d3e
00000180: ebb2 bc3c b171 66be 0293 3f3e 12a6 ce3d
00000190: c02f d33d bc57 03be f314 29bd 9ca2 66be
000001a0: b500 303e 0e11 623e 39b2 e7bc 01da 8abe
000001b0: cecc 493e 6574 01be e359 75be 468d f7bd
000001c0: c615 9d3d 4545 acbd 4528 4a3d 4751 8f3e
000001d0: 94a6 903e 4a21 753e 09c0 f63d e434 8bbe
000001e0: fe6d 9b3c ab2d 523e b831 ed3c a02a 513e
000001f0: a1e2 b7bd f170 b83c 73de 933d 33ab 08be
00000200: 8e5b 6c3d 8eb0 18be 3acc 083e 88b3 1cbe
00000210: fe9e 333d df3e 93be 6fda 35be ac95 38be
00000220: 5c18 0fbd e945 95be a92f 29bd 6c32 333e
00000230: 78be 1a3d 718d 273e 26c3 753e 4220 a7bd
00000240: 1da4 da3c 54f0 5b3e 5e21 ec3d f703 b63d
00000250: ea04 87be 3a69 40be 4afe d4bd 998f 9abe
00000260: 768b 3d3d c6a6 7ebe 4573 49be 049f 83be
00000270: 155c 95bd 4654 0e3e 21f7 98be d1e4 11be
00000280: 2572 a1be 7775 55be 1cba 07be 0dff 32bd
00000290: 3135 843c 17f7 393e ab6c 44be 3158 46be
000002a0: 64ba 703d 5b88 213e 68f9 c63d b49c a8bd
000002b0: 8866 d3bd 9d8f 8cbd 9422 0fbe 7b45 263c
000002c0: acd1 843e 13e3 64be e939 34be d175 7bbd
000002d0: be0f 12be ea22 463d f2c6 40bc c6fc 973e
000002e0: b052 b23c 8118 653e 6149 fb3d 2b75 75be
000002f0: c90d bdbd 90ce 69bd 0d4e 113d 5869 593e
-0.0008026937 0.18340659 0.24409425 -0.20489353 -0.044015493 0.27214563 0.16219856 -0.16319135
0.07843391 -0.1599592 0.22970235 -0.28695118 -0.17678608 -0.24454808 -0.2232249 -0.24894989
0.04168809 -0.09068886 0.016807716 -0.30916956 0.15748812 0.1600482 -0.00915778 -0.17933537
-0.19079307 0.17847732 0.12984173 -0.17336687 -0.25441933 0.13741712 0.12291171 -0.23106676
0.13743952 0.27165607 0.055778876 0.1674636 0.051774483 -0.23876326 0.1817362 0.02024169
-0.0031998644 0.0117339585 0.21274649 0.27514148 0.09761561 -0.114014596 0.19937988 -0.2619592
0.18114963 0.04566844 0.26007804 -0.079868436 -0.023945889 0.27656525 -0.2965581 -0.030531958
0.035571493 0.10783341 0.10517755 0.09843954 0.16316447 -0.22835831 -0.09255345 -0.30724436
-0.17871173 -0.20111348 0.21087195 0.059145022 -0.19101842 -0.08784671 0.074275285 -0.0031459224
-0.08270132 -0.13065062 0.05935874 -0.026704684 0.30474555 -0.21309933 0.29218584 0.0132148545
0.26270235 0.25353184 0.110116474 -0.080281466 -0.08581937 0.14843655 0.22088444 0.16523057
-0.27121338 0.08191381 0.10751707 -0.23520961 0.07929626 0.25759047 -0.11907284 0.20019881
0.023034533 -0.22504307 0.18708423 0.10090269 0.10311842 -0.12826437 -0.041279744 -0.22522968
0.1718777 0.22076818 -0.028283225 -0.2711945 0.19707033 -0.12642057 -0.2396007 -0.12087493
0.076701686 -0.084116496 0.04935481 0.27991697 0.2825209 0.2393848 0.120483465 -0.2718879
0.018973347 0.20525233 0.028954372 0.20426416 -0.08978773 0.022514792 0.07220163 -0.13346557
0.0577045 -0.149111 0.13359156 -0.1530286 0.0438528 -0.28758904 -0.17759107 -0.18025845
-0.03493534 -0.291549 -0.041305218 0.17499703 0.0377793 0.1636255 0.24000224 -0.081604496
0.026689583 0.21478397 0.11529802 0.08887475 -0.26370937 -0.18790141 -0.10400064 -0.3018768
0.04627558 -0.24868307 -0.19672878 -0.25707257 -0.07292954 0.13899335 -0.29876044 -0.14247443
-0.31532398 -0.2084559 -0.13254589 -0.043700267 0.016138645 0.18160664 -0.19182079 -0.1936958
0.058771506 0.15774672 0.09715539 -0.08233014 -0.10322291 -0.068633296 -0.13978034 0.010148401
0.25941217 -0.22352247 -0.17600216 -0.061391655 -0.14263818 0.04837314 -0.011766182 0.29685038
0.021767944 0.22372629 0.12269855 -0.23970477 -0.09231145 -0.05708176 0.035474826 0.21231592

encoder.0.bias f4 [16]
00000000: b49d c3bd 6fe9 4abe 25ee 85be 8b9f c93d
00000010: 4202 c43d 3749 8abd deac 54be 3b79 8d3e
00000020: f1a2 343b 160e ecbd 60c8 31bd 3ec8 323d
00000030: c32e 773e 5197 e43d 6a02 34be 33f3 863d
-0.09551564 -0.1981561 -0.26158252 0.098448835 0.09570743 -0.06752246 -0.20769069 0.27631554
0.002756294 -0.11526124 -0.043403983 0.043647997 0.24138932 0.11161674 -0.17579046 0.06589355

encoder.3.weight f4 [32, 16, 7]
00000000: 209e c53d 2d75 1bbd 3a49 033d 9bd2 213c
00000010: 286f a13c f2a6 ab3d 19a1 6a3b 50a5 4a3d
00000020: a4cb ccbc 60df c43d 892a 5b3d ab3e 823d
00000030: 09a2 e13c f28e 18bd 65c4 8bbd d04d 86bd
00000040: b849 a13d e077 c6bc 3720 543d 4a67 8cbd
00000050: 32a8 91bd 36fc 423d ecd6 973d c7ce b33d
00000060: 9b67 a8bd 38bf dfbc e23b 72ba 2f73 19bd
00000070: 1beb 29bc 8a52 db3d 568f 8d3d c861 033d
00000080: 79ec 2f3d 104d f93c b612 8fbc 7222 af3d
00000090: 8e1f b5bc d8b7 03bd 42d2 023d 7de6 953c
000000a0: 85c3 0ebc 3e75 8fbd 6c22 a73c 0fc0 6cbd
000000b0: ccb3 9ebb 38f8 9dbc 0f92 3f3d a7ff 763d
000000c0: bf39 60bd 5b8a 93bd beba a9bd 62db be3d
000000d0: e9ca 72bd bfd0 f23b 8914 8dbd 0d53 c53d
000000e0: c0b3 7b3c ede2 943d 39ce b73d 4ee9 9d3c
000000f0: fd16 85bd 2cd4 7bbd 463a 75bd 4346 923d
00000100: 4945 84bd 988b 853d f8ca 85bd 87a6 ba3d
00000110: 58c4 02b8 01c6 0f3d 70be bb3d 5ba9 2c3d
00000120: 524e 4d3d cf9b 723d 0fd7 4b3d 99f6 533d
00000130: ffb1 8fbd 17f6 7ebd e7c4 a73c 59b1 40bd
00000140: b599 383d 347c 8c3d 6930 e73c 0a0a 8b3d
00000150: 1fb8 613d 838a b43b 911c 0c3c 61a7 2cbd
00000160: f680 3c3d f029 32bd e75d b43d 112c 943d
00000170: ab38 9bbd 40d9 9e3d 304d da3d 549e 5ebd
00000180: 3580 93bb 2eda 973d 2d69 df3b 7e9b d93c
00000190: 8357 c43d e8a1 613d 2fb3 473c 54be 0bbd
000001a0: 49f6 dcbb 8f50 cb3d 6f9d 76bc ff71 cebc
000001b0: 1030 863d 8202 84bd 62ac 83bd 4ec6 5f3b
000001c0: bdd9 cd3d 995a bd3d e0ba bd3d 3c36 bb3b
000001d0: ab8d f9bc ca9a d4bc 9194 7f3c bdad b13d
000001e0: 198a 83bd 777c 81bb bc30 0a3d d582 a43c
000001f0: b8bb 26bd d11e e2bd b631 0d3d 159f 043d
00000200: c0ed a13d 23b1 d23d 2260 d43c 2b59 92bc
00000210: 5cf5 babc 842f b63d 2881 ea3d 33aa 993d
00000220: b8e1 f43d a7bc 4abd 329f ca3d 7050 193d
00000230: f714 3e3d 7b28 913b b3a9 503d cded 4d3d
00000240: bf34 043e 4f2d 14bd 719b 783d 5d95 2d3d
00000250: 9563 0cbc 87ab f5bc 2463 d9bc 7e1b 8bbd
00000260: fa45 73bd ec73 7bbd 9ecf 963d 0244 e3bc
00000270: cfdc b53d 1bd9 8dbd e928 ca3d 4098 34bd
00000280: cd05 5abd 3e01 753c f02e 12bb 4fa3 89bc
00000290: 0cf0 2fbd 00d9 b8bc e4bd bd3d eed7 6e3d
000002a0: c46b 7abc b66c eabc b888 45bc 8b4c fa3b
000002b0: 50c5 1bbb 3867 243d 2880 e3bb dca1 8b3c
000002c0: 4c0e 183c bc2b 023c 0f65 c3bc 0f60 ebbc
000002d0: 773e 99bd 64e1 b73d 13be d5bc 58f1 30bd
000002e0: fd8b 023e 667b 313d b0d2 e6bc 6f7e d03a
000002f0: 8edb 993d c8db c53d d296 0abb a0be d53c
00000300: bea1 a93d 1706 31bd 73fc 983d 0bb9 97bd
00000310: dbad 673d 72ba 47bd 9d5a be3d 8dcb 95bd
00000320: 5885 a2bc 2261 973c 13ab 58bd d1b1 47bd
00000330: 1a84 fabc 416d 143d 4d1e bc3d 7c3c a43b
00000340: b9c0 993d f14a a8bd c821 cf3d 7bb4 c33c
00000350: caef cfbc af61 9d3c cd9b f43c 2939 993c
00000360: 3dba 3b3d e612 4fbd 59fc f53d 4db0 fd3d
00000370: 74b0 67bc d989 e23c 6034 073e 5652 c53a
00000380: 91b2 ab3c a0be 1c3d 6852 963d 54fe f03d
00000390: 6206 8c3d c17c a0ba ef92 393d 7c36 a8bd
000003a0: 011e d2bc 07fb 68bd e234 80bd c7aa b6bd
000003b0: 5e3f 86bd 2d3b 49bd 3fbb 6bbc e8fc 203d
000003c0: 4e35 af3c 78ae 66bc 9036 383d f928 983d
000003d0: 6bde 923d cef3 c23d 5b3c 443d 4a74 3b3d
000003e0: b669 8a3d 8d1e 6bbc ace9 b83d bd4f a0bc
000003f0: 21b1 b73d cf67 4cbb bd59 023d 98d5 f93d
0.096493006 -0.037953544 0.032052256 0.009876872 0.019706324 0.08381452 0.0035801588 0.04947406
-0.024999447 0.09612918 0.05350736 0.06359609 0.027543085 -0.0372457 -0.06824569 -0.0655781
0.07875389 -0.024227083 0.051788535 -0.06855638 -0.07112159 0.04760381 0.0741404 0.08779674
-0.08222886 -0.02731286 -0.00092404906 -0.037463363 -0.010370995 0.107091025 0.06912105 0.032075673
0.042950127 0.030432254 -0.017464977 0.08551492 -0.022109773 -0.03215775 0.0319388 0.018298382
-0.008713608 -0.07004784 0.020402156 -0.05780035 -0.004843211 -0.019283399 0.04677015 0.060302403
-0.05474257 -0.072041236 -0.08287571 0.09319188 -0.05927554 0.0074101384 -0.068886824 0.09634981
0.01536268 0.07269845 0.08974881 0.019276287 -0.06498525 -0.06148164 -0.059870027 0.071423076
-0.064585276 0.06520766 -0.06532854 0.09113794 -3.1177275e-05 0.03510094 0.091671824 0.042153697
0.05012352 0.059230622 0.049765643 0.051748846 -0.07016372 -0.06224641 0.020479633 -0.047044132
0.04506846 0.06859627 0.028221326 0.06789024 0.055107232 0.005509676 0.008551733 -0.042151812
0.046021424 -0.043497026 0.08806973 0.072349675 -0.07579168 0.07756281 0.106592536 -0.054350212
-0.0045013675 0.07414661 0.006817958 0.026563402 0.09587004 0.055086046 0.012188717 -0.034117058
-0.0067432267 0.09927475 -0.0150521835 -0.025200842 0.06552136 -0.06445791 -0.06429364 0.0034145298
0.10051296 0.09245796 0.09264159 0.0057132524 -0.03046306 -0.025952715 0.015599386 0.08675716
-0.064228244 -0.003951605 0.033737883 0.020081917 -0.040706366 -0.11041034 0.034471236 0.032378275
0.07906675 0.102876924 0.025924746 -0.017864784 -0.022822075 0.08895782 0.11450416 0.07503166
0.11957115 -0.04949632 0.09893645 0.037430227 0.046406712 0.0044298745 0.050943088 0.050275613
0.12910746 -0.036176022 0.060695115 0.042378772 -0.008568664 -0.029989017 -0.026536532 -0.06792353
-0.059392907 -0.06138985 0.073638186 -0.02774239 0.088800065 -0.06926175 0.09871084 -0.04409051
-0.05322819 0.014953909 -0.002230581 -0.016801504 -0.042953536 -0.022564411 0.092647344 0.058311395
-0.015284482 -0.02861629 -0.012056522 0.007638519 -0.002376873 0.0401375 -0.0069427676 0.017044954
0.009280752 0.007944997 -0.0238519 -0.028732328 -0.07482617 0.08978537 -0.026091611 -0.043198913
0.12748714 0.043330573 -0.028176636 0.0015906821 0.0751258 0.096610606 -0.0021147025 0.026091874
0.08282803 -0.0432187 0.07470026 -0.07408341 0.056562286 -0.048761792 0.09294627 -0.07314215
-0.019838974 0.018478934 -0.052897524 -0.048753563 -0.030580569 0.036237005 0.09185467 0.005012093
0.07507462 -0.08217419 0.10113865 0.02388977 -0.025382895 0.019211618 0.029859448 0.018704014
0.045831908 -0.050555132 0.12011022 0.12387142 -0.014141191 0.027653622 0.13203573 0.0015054445
0.02095917 0.03826773 0.073399365 0.11767259 0.06837155 -0.0012244211 0.045306142 -0.08213517
-0.025649073 -0.056880023 -0.062600866 -0.08919292 -0.06555055 -0.0491287 -0.014387905 0.03930369
0.021387722 -0.0140796825 0.04497391 0.0742969 0.07171329 0.09519158 0.047909122 0.0457652
0.06758444 -0.014350546 0.090289444 -0.019569272 0.089693315 -0.0031189804 0.031823862 0.12198943

encoder.3.bias f4 [32]
00000000: a817 563d 24d7 6e3d 2fd6 7dbc 79ab 22bd
00000010: df8c b63b 4531 8bbd cf03 ca3b 582b cc3c
00000020: a73b ca3d 9862 efbc 3832 6a3d 88be 6abd
00000030: b8f6 c73d 875c 863d 346c 103d fc28 643d
00000040: 3e6f e03d 2eb8 5e3d c501 7abd 4475 a2bc
00000050: 8992 8c3c 8507 fbbc a5e3 e03d 8624 a2bd
00000060: 97b2 e5bc 521c eebc db9d 053d 85ee 8d3d
00000070: a411 883c fe4e febc 101e 65bd 298d df3c
0.052268654 0.058310643 -0.01549296 -0.03971431 0.0055709924 -0.06796507 0.006165005 0.024923012
0.09874659 -0.029221818 0.0571768 -0.05731061 0.09763855 0.06560617 0.03525944 0.05570315
0.10958718 0.054374866 -0.061036844 -0.019831307 0.017159717 -0.030643234 0.1098092 -0.079171225
-0.02803926 -0.029066239 0.032621246 0.069302596 0.016609974 -0.031043526 -0.055936873 0.02728899

lstm.weight_ih_l0 f4 [512, 32]
00000000: 2928 a63d dd21 b2bd 67be 623d ea5f f5ba
00000010: efbc 36bd b419 2a3a 7ff6 90bd e68e 483d
00000020: 42a6 a4bc 5734 423d 73e3 91bd ef70 f5bc
00000030: 5392 54bd f178 91bc 22af 9b3d 6c5c 053c
00000040: be0e 07bd 8187 6a3d 9270 c73d d8f7 193d
00000050: c7bd 0cbd 690f 443c b633 1e3d ff52 9ebc
00000060: 4532 30bd a140 963b bc31 a5bc b449 c83c
00000070: b7e9 3a3b a44f d13d 162b b23d 083f 733d
00000080: 29c9 6cbc b3df e0bc d669 723d 2177 c7bd
00000090: 0e28 f13b 7775 8b3d eaf5 963c 3333 073d
000000a0: 356a d23d fd01 8bbd c8b9 9c3c c496 8cbc
000000b0: 9295 8f3d 2d0e 853d ab7c 20bd 6416 a6bc
000000c0: 1d4c 903d ce81 9abd 08e1 6c3d 0525 3b3d
000000d0: 2b39 7abc b4fe 45bd a1d7 13bc fe1f 143d
000000e0: a499 81bd 7827 993d cb57 903d 41e1 3cbd
000000f0: 5edf 96bd 4f36 763d 73eb 26bd 0deb a8bd
00000100: 1382 06bd d194 88bc 1699 f2bc 8461 7abd
00000110: 46a8 8d3d a958 213d 69e6 c1bc dc86 a73d
00000120: 8957 0abc 0420 ac3d cd30 9abd e7af ab3c
00000130: f91f b33c 77cf 45bd f6d7 ea3d e2a8 38bd
00000140: f59c c13d 852f 79bd b7f3 613d 632c 6b3d
00000150: b412 13bd 3e42 2dbd eec1 c2bc 4d39 893b
00000160: 6fd0 46bd 7075 3dbd 7b41 753d eedb c43d
00000170: 1c4f 51bc a08b 853d 3a49 4f3d 9de7 993d
00000180: b453 dbbc a084 223c e716 803d 4495 1bbd
00000190: d412 b8bc aab8 233c 1284 07bd 660a 0dbd
000001a0: 0ed5 28bc 446d 613d c717 6bbd c086 95bd
000001b0: e7f8 de3c 604a 56bc 6b49 7c3d 27da b23c
000001c0: a4b1 4ebd ddb5 47bd 0f36 f5bb 93c1 85bc
000001d0: 40ca 683c d2fd 933d ef19 ae3d bac0 313d
000001e0: 85f8 d93d f3f1 093c ce43 1f3c 3748 b1bc
000001f0: efcc 033c 6696 a93d ff11 ae3d 8869 13bd
00000200: b7bc ff3c d275 fb3c ed68 1f3d 4f76 4f3d
00000210: 5006 9a3d bd38 cfbc 71b7 55bd 7907 fc3c
00000220: 5701 3d3d d56c 443c ec25 813d 8ed0 b2bd
00000230: 7cf9 68bd 3ab4 92bd a2c5 aebc 6856 84bd
00000240: 2d5d c9bc 3829 f2bb 5680 543d 9922 09bd
00000250: b3b3 89bd f305 65bd e614 463d 8054 a1bd
00000260: 38b5 a8bd dfbe 5a3c e117 b93d 84b2 92bd
00000270: fa36 0a3c 2bab 243c 4153 523d e98e b63d
00000280: 4dbf 46bd 0acc 353d 6436 4b3d 1986 793d
00000290: afe7 9c3c ba77 113d 6c86 d63d d389 eebc
000002a0: 0932 d93c 8096 323d c39c ca3d b1f0 9b3d
000002b0: c702 193d b814 b2bc fab2 24bd 95bd b73d
000002c0: 6852 843d 5863 b23d 48e3 b23d 23a7 d83d
000002d0: 11cc 7a3d 07bb 13bd eb05 8cbb 4eea b8bc
000002e0: a620 cc3d 30c1 babc a074 c53d a017 763d
000002f0: f631 013d 4550 49bd 40f5 2fbd c7de 263d
00000300: d4a5 ddbc 60bd 27bd 8cec e83c e6a4 2ebd
00000310: 7129 64bd bdc9 8e3d 936b b93d dba4 873d
00000320: ae9d c73d bc6a 373d 0fbf 923d f864 6bbc
00000330: 6b56 313d 1fd7 c03d f2fd b33d 9fcd c63d
00000340: 96a3 863c 0d85 91bd 82fc ef3c 55df 4bbc
00000350: 311d d33d 5fad bb3d 7a56 8abc 19f7 89bd
00000360: 5638 2a3b b55c 2a3d f59f b13d 1412 283d
00000370: de3d d93c e7f0 8ebd e328 44bd abe2 2ebd
00000380: e5f7 97bd ce64 0d38 e576 ebbc 9548 343d
00000390: 06a1 f53c c5e7 693c 985f 4d3d 9d09 c13d
000003a0: fdf4 173d bffd 91bd a5e9 81bd 64d2 fc3c
000003b0: 166b 4ebd 9950 51bd dae8 19bd b09a 623d
000003c0: 9dd3 9d3d 1e77 5cbd 8c01 b4bc 5fc0 983c
000003d0: 7d8e 403d 8d7e 503c 348e 383d c173 473c
000003e0: 0181 023d 1818 7bbd 7921 bebc dfa4 333d
000003f0: ddd7 263d b704 62bd 75bc a83d cb5a 913d
0.08113129 -0.08697865 0.055357363 -0.0018720601 -0.044613775 0.00064888154 -0.070782654 0.048964404
-0.02009881 0.047413196 -0.071234606 -0.029961077 -0.05189736 -0.017757865 0.07601763 0.008139711
-0.032973044 0.057258133 0.09738268 0.037589878 -0.034360673 0.011966565 0.038623534 -0.019326685
-0.04301669 0.004585341 -0.020165317 0.024449207 0.0028520653 0.10220268 0.08699624 0.059386283
-0.014452257 -0.027450418 0.059182964 -0.09739519 0.007359511 0.06809514 0.018427808 0.03300781
0.10274164 -0.067874886 0.019131556 -0.017161734 0.0701095 0.064968444 -0.039181393 -0.020274349
0.070457675 -0.075442895 0.057831794 0.0456896 -0.015272419 -0.048338607 -0.009023578 0.036163323
-0.06328133 0.07478231 0.07047995 -0.046113256 -0.07366823 0.060110386 -0.040751886 -0.082479574
-0.032838892 -0.016672524 -0.029614013 -0.061128154 0.06916861 0.039391194 -0.023669438 0.08180019
-0.008443722 0.08404544 -0.07528839 0.0209579 0.021865832 -0.048293557 0.114669725 -0.045082934
0.09453765 -0.060836334 0.055164065 0.057415377 -0.03590651 -0.0422995 -0.023774114 0.004187739
-0.04853862 -0.046254575 0.0598769 0.09612261 -0.012775209 0.06520772 0.050606944 0.0751488
-0.026773311 0.009919316 0.06254368 -0.037984148 -0.022469915 0.009992758 -0.033084936 -0.034433745
-0.010304702 0.055035844 -0.057395723 -0.07301092 0.027218295 -0.013079256 0.061593454 0.021832539
-0.05046238 -0.048757423 -0.007483251 -0.016327655 0.014208376 0.07226147 0.0850104 0.04339669
0.106431045 0.008419502 0.009720756 -0.02164088 0.008044465 0.08280639 0.08499526 -0.035989314
0.031217916 0.03069583 0.038918424 0.050649937 0.07520735 -0.02529561 -0.052176896 0.030765282
0.046143856 0.011988838 0.06306061 -0.08731185 -0.05687855 -0.07163282 -0.021334473 -0.06461793
-0.024580562 -0.0073901676 0.051880203 -0.03348026 -0.06723728 -0.055913877 0.048359774 -0.07877445
-0.0823769 0.013351171 0.09037758 -0.071629554 0.008435959 0.010050575 0.05134893 0.08913977
-0.048522282 0.04438404 0.049612418 0.0609189 0.019153444 0.03551457 0.10474858 -0.029118454
0.026513116 0.04360056 0.09893181 0.076142676 0.037356164 -0.021738395 -0.040209748 0.08971707
0.0646103 0.087103546 0.08734757 0.10578754 0.06122977 -0.036067035 -0.0042731664 -0.022572663
0.09967165 -0.022797197 0.09641385 0.060081124 0.031541787 -0.049148817 -0.042958498 0.0407398
-0.027056612 -0.040952086 0.028433107 -0.04263773 -0.055703584 0.06972072 0.09053721 0.066232406
0.09746872 0.044779524 0.07165348 -0.014367335 0.043295305 0.09416031 0.087886706 0.09707188
0.016435426 -0.071054555 0.02929521 -0.012443383 0.10308302 0.09163927 -0.016886938 -0.06736583
0.002597352 0.04159232 0.086730875 0.041032866 0.026518758 -0.06979542 -0.047890555 -0.042696636
-0.07420329 3.37109e-05 -0.028743217 0.044014532 0.029984009 0.01427645 0.050139993 0.09425662
0.037098873 -0.07128476 -0.06343392 0.03086204 -0.050395094 -0.051102255 -0.03757558 0.055323303
0.07706378 -0.053824537 -0.021973394 0.018646417 0.047010887 0.012725485 0.04505749 0.012173594
0.03186131 -0.061302274 -0.02320932 0.043858405 0.040733207 -0.055180278 0.0823907 0.070973955

lstm.weight_hh_l0 f4 [512, 128]
00000000: 3a70 cc3c aeff d33d 1d4c 65b8 4781 86bd
00000010: e1f1 88bd 6d43 cc3d 8bcb 41bd 51c3 7bbd
00000020: dacb 4a3d b4d0 843d 0673 c63d b952 9cbd
00000030: 0107 a73d 5203 903d d701 98bd 97ad f43c
00000040: cce6 6fbb 4265 8a3d 6a73 c93d ad56 fe3c
00000050: 874d 23bd e0ef 8e3d 4f2a 2fbc 7160 fdba
00000060: aa1e 19bd 2527 313d bed5 be3c ae4c 7e3d
00000070: a436 c83d 9aa9 06bd 01cd a4bc 0bcf 513d
00000080: 8ed1 1fbd f845 9cbc f44c 6dbd 7b44 143d
00000090: 46ae 643d 4035 9cbb de69 3cbd 6c74 6abd
000000a0: dd4c 9d3d a832 973d 7a5e cc3c dafd e13b
000000b0: 05d3 41bd 0703 773d 7d53 4a3d 2817 ecbc
000000c0: 3cee 153d 7adc 38bd 67f5 403d 0ad8 a1bc
000000d0: a76f 8cbd 2d36 253d 282d 08bc 5f30 94bd
000000e0: 8d84 673c 3389 8abd 939b 42bc 8e6d 1cbd
000000f0: 5509 833d dff1 513d 8277 a43d 27f6 9fbc
00000100: eec7 6cbd 2ee5 a5bb 60cc 92bd a6be 0c3d
00000110: e1a0 8a3b da3d a03d af90 7fb9 7b6b 8d3c
00000120: 2184 0ebd f931 91bd ed01 3f3c 927b 97bc
00000130: 2654 93bb e56f 8fbd 1d96 1bbd 5ea0 bd3c
00000140: 391e 5e3d c79a 113c b74e 7e3d f264 4bbb
00000150: 1580 8a3d 04ed c0bd dcbd f53c 8163 393c
00000160: cad1 873d 9012 c33d 0b03 bcbd 983e ff3c
00000170: 9f96 97bd 7d56 93bc 13ca e1bc 39b5 f03c
00000180: 04a4 f43c f1dd a8bd d9ac 703d a2c2 2bbd
00000190: 953e 5fbd 80fc d2bc ae36 dbbd 509f 523d
000001a0: 714e 87bc 1792 00bd 93fc 3dbd 37e8 dabd
000001b0: 5fa7 463d 771f f538 d06b 8bbd b72d a83b
000001c0: 127a 133d 9e77 973d b9c4 373d f75e 40bc
000001d0: 6fdc 123d 3fae 26bd e456 713d 2233 8cbd
000001e0: d248 ccbc c105 39bc a5cf 443d 878e b53c
000001f0: e4dd 88bd b703 b33d ee54 24bd 3438 85bd
00000200: e593 cfbd da39 b43d 4109 e9bc fb03 913d
00000210: 0723 623d 01b6 5c3d d8f2 9f3c f96c 743d
00000220: 2540 603c 63d9 273c f8f5 143d 4ab4 9ebd
00000230: 83e9 debc 3f92 83bc 9f8b a43c 03a5 d13d
00000240: b0f2 23bd 217a a33c 927c 20bd d083 4c3d
00000250: 302b 933d cd8a 0fbd 5329 69bd 4a5e af3d
00000260: dcce 573d 6c75 09bc b6c9 b73d 605b a5bd
00000270: 73cd c63d cb8d 633d 7226 a73d 9355 78bd
00000280: da44 7ebd c7e9 8d3d 8f74 c9bc 4155 813d
00000290: e5e2 26bc 28f0 82bd e97d d9bc 7d5a cdbd
000002a0: 83fa cdbc f9df f83c 77a0 5a3c e67a 653d
000002b0: a7d5 95bc 59f6 2eba c852 bcbd fa2e 62bd
000002c0: e687 a53c 143d 4abb 9443 43bd e278 3c3d
000002d0: e2ab bfbc fed8 893d 65eb 8abd cf42 513d
000002e0: a2c2 633d dca6 4a3d bcc5 583d c208 9bbd
000002f0: 9b85 803b c17d 8abd 876c d53c d9b4 083d
00000300: fedb 42bd 4b81 60bd d9c6 c5bc a91f f43c
00000310: 01d8 983d ee3e 9abd 5342 a53c 32a9 963d
00000320: 1f36 ab3c f2c3 843d 81c8 543d ba84 9ebc
00000330: 7439 6fbd f22f 75bd 0f6a 1abc 4860 af3d
00000340: a300 ab3c acd6 00bd 4071 a9bd 53e1 01ba
00000350: a28f d0bd 2c20 5a3d c3a0 7e3d e931 84bd
00000360: 6b90 413d 1f68 4bbd f738 6fbd 3893 6dbd
00000370: ce10 d1bc 2f5d 533d 66ca 22bd ea52 98bd
00000380: dfcc b33d f7c9 d53c 8aab f0bc e776 f43b
00000390: f2c5 dbbc ccfd 873d 89c4 9b3c e717 d33c
000003a0: df2b a23c f37a 2a3d 7d2b 63bd 0b4a c3bd
000003b0: 6e69 9abc 2f83 c6bd 52c7 163d a46b 98bc
000003c0: a301 ceba 75c9 833d 410c 6bbd 6cf4 9cbd
000003d0: 3b88 463d e366 b7bc cbf1 843d b238 8cbd
000003e0: 3e37 06bd 22ee 803d 5260 c4bd 8ce1 db3c
000003f0: d554 113b 8e17 a33d d1c9 e23b a59d a5bb
0.024955858 0.103515014 -5.466874e-05 -0.065676264 -0.0668676 0.09973798 -0.047313254 -0.061465565
0.049510814 0.064851195 0.09689908 -0.076329656 0.08155633 0.07031883 -0.07422226 0.02986793
-0.0036606072 0.06757595 0.098364666 0.03104719 -0.039868858 0.06979346 -0.0106912395 -0.001933111
-0.03738276 0.04325022 0.02329528 0.062084846 0.09776047 -0.03287659 -0.020117285 0.051222842
-0.039018206 -0.019076332 -0.057934716 0.03619812 0.055830263 -0.00476709 -0.0459994 -0.057239935
0.07680676 0.07382709 0.024947394 0.0068967165 -0.047320385 0.06030562 0.049396027 -0.028819636
0.03660415 -0.045132138 0.047109034 -0.019756336 -0.068572335 0.04033487 -0.008311547 -0.072357886
0.014130724 -0.0676445 -0.011877912 -0.038190417 0.06398264 0.051256057 0.08030607 -0.019526554
-0.057807855 -0.0050627207 -0.07167888 0.034361504 0.004230604 0.07824297 -0.00024372594 0.017263165
-0.034793977 -0.0708961 0.011658174 -0.01849154 -0.0044961153 -0.07003764 -0.037984956 0.023147758
0.05422804 0.008886999 0.062086787 -0.003103551 0.06762711 -0.09420207 0.029997759 0.0113152275
0.06631811 0.09525025 -0.09180268 0.031157777 -0.074017756 -0.017985577 -0.027562177 0.029383289
0.029863365 -0.08245457 0.05875859 -0.041933663 -0.054503042 -0.025755167 -0.10703789 0.051421463
-0.016516896 -0.031389322 -0.04638345 -0.10688823 0.04849946 0.00011688371 -0.06807673 0.0051324028
0.036005087 0.07395862 0.044865344 -0.011741391 0.035854753 -0.040693518 0.058920756 -0.0684569
-0.024937067 -0.011292876 0.048049588 0.022162689 -0.06682947 0.08740943 -0.040120058 -0.065048605
-0.101356305 0.08800097 -0.028446795 0.07080837 0.055209186 0.05388451 0.019524977 0.059674237
0.013687168 0.0102447 0.036367387 -0.07749231 -0.027210956 -0.016060947 0.020086108 0.102365516
-0.040026367 0.019955697 -0.0391813 0.049930394 0.07185972 -0.03504448 -0.056924175 0.08562906
0.05268751 -0.008389812 0.0897402 -0.08074069 0.09707155 0.055555146 0.0816163 -0.060628485
-0.06207738 0.06929355 -0.024591712 0.06315089 -0.010185932 -0.063934624 -0.026549296 -0.10027025
-0.025143867 0.030380236 0.013343922 0.05602541 -0.018290354 -0.0006674282 -0.09195477 -0.05522058
0.020206403 -0.003085916 -0.04767187 0.04601372 -0.02339739 0.06730841 -0.06783179 0.051089104
0.05560554 0.049475536 0.05292295 -0.0757003 0.003922177 -0.06762267 0.026052726 0.033375595
-0.047573082 -0.054810803 -0.02414267 0.029800253 0.074630745 -0.07531534 0.020173227 0.0735649
0.02089983 0.06482686 0.051949028 -0.019350398 -0.0584044 -0.059860177 -0.0094247 0.08563286
0.020874327 -0.031454727 -0.08273554 -0.00049545354 -0.10183646 0.053253338 0.062165033 -0.06454832
0.04725687 -0.049659844 -0.058403935 -0.058001727 -0.025520708 0.05160254 -0.039743803 -0.074376896
0.087793104 0.02609728 -0.029378671 0.0074604633 -0.026827786 0.06640205 0.019014614 0.025768233
0.01979631 0.04162116 -0.055461396 -0.09535607 -0.0188491 -0.0969299 0.03681118 -0.018606015
-0.001571704 0.06434909 -0.057384733 -0.07663807 0.048469763 -0.022387927 0.06491431 -0.06846751
-0.032767527 0.0629542 -0.09588684 0.026840948 0.0022175808 0.07963477 0.006921031 -0.005054193

lstm.bias_ih_l0 f4 [512]
00000000: 99f4 38bd 47db 163d 50b7 8b3d 84a6 733d
00000010: ec74 843d 7e84 3b3c 809f 43bd e7da 91bd
00000020: 6d35 1b3d 5b5b 073d 1639 83bd ec5b 86bd
00000030: d361 80bd 7ac7 9d3d 3d4b 4e3d 80c1 8cbd
00000040: 00a2 92bd 6d6f 24bd cedf 85bd 018e 6a3d
00000050: f5fe 34bc 7a0b 46bc 1119 4c3d 5b94 333d
00000060: 4e97 753d 5f06 19bd 9d00 3abd efac dabc
00000070: f197 3e3d 1932 d6bc 0fb1 99bd ae00 bcbc
00000080: dfb1 15bd af1c b3bc e9c6 9f3c 81bc b03d
00000090: 01d7 703d 1ac1 763c 4f93 633d a1c8 74bd
000000a0: 2c8a db3d 6ac7 6abd 7f15 83bd d653 9f3d
000000b0: f14a 0c3d f3d3 7c3d b780 ce3d 24ab 633d
000000c0: 8d35 1fbc 293f 203d 4f91 12bd d814 97bd
000000d0: 08b4 b73d 8966 633d 8db3 42bd 8c04 933a
000000e0: a7d2 313d 7dc4 b03d 0708 98bc c524 bf3d
000000f0: 7aa0 a6bc 9d23 da3c 4636 41bd 619a 943d
00000100: 0531 aa3d 5ef3 c63d e231 54bd 1829 d43d
00000110: f850 6fbd 8cb8 10bd 38cd 73bd 60b1 33bc
00000120: 59b6 7cbd e3ef 123c 76ab 853c cc8f 473d
00000130: 4cee 44bd 2b2d e4bc be73 213d d30a 9d3d
00000140: e844 3c3d 2afd 84bd 60d2 c63d b4dd adbd
00000150: 4e29 0bbc 2eb3 98bc 9603 683d c88e 05bd
00000160: a346 34bc 672f 61bd d756 303d 611e f33c
00000170: 66b6 1abb 5c90 d0ba bdc8 82bc d0ed 1c3c
00000180: df00 91bd b499 1e3b 5e12 70bd 384c 8cbc
00000190: 87e9 443d 1044 6c3b 1c04 953d fa90 9bbc
000001a0: 973f 71bd 0fba 793d 3365 31bd 54f8 233c
000001b0: 003e 903d ad15 30bd 8380 0bbd 0faa 6f3d
000001c0: bfa3 5f3d a4c2 77bd 8732 1f3d 991a 8cbd
000001d0: 82cc 1fbd a5f1 043d ddf1 483d a526 6c3d
000001e0: 4064 8dbb d5f2 6a3d 942a b7bb 6176 773b
000001f0: b2c2 a93d 2da8 00bd 24c6 aabc 4afd 96bd
00000200: 71ea c33d 12a9 5fbd 3e6f 483c d5e6 c93d
00000210: 602d 0f3d ada9 69bd 8a1f 8cbd 769d 843d
00000220: fb13 4ebd 00bc 17bd a93e de3d bb68 d43c
00000230: 4d91 3f3d 8257 17bc fc5f d93d 6ce8 673c
00000240: b477 94bd f703 963a 289f a93b 17e0 6abd
00000250: 13f0 42bd 0e77 a03d 1950 0bbd e27e 213d
00000260: 5f30 40bd f11b 37bd 1eec 733d 327b 94bb
00000270: b04e 653c deda c23a eee4 acbb d78a 8abc
00000280: fc98 a5bc 4f02 32bd 55ae 373d bb46 febb
00000290: c05b 173d 3ebc 833d 08de 5bbd 93a9 2e3d
000002a0: b287 b23d f04d 96bc 05de cf3c e5f1 36bc
000002b0: 3f31 913d 42c7 a93d ae85 4cbd 47ae 9b3d
000002c0: 52f2 1ebd ea30 a939 fb3f 5a3b 7f79 81bd
000002d0: 293b 84bd 7e9b e53c 40bf ad3d 59e9 63bc
000002e0: 70ee 25bd 8daf a5bc a9cb 5fbb 4d4d ab3a
000002f0: 06e2 493c 537d 24bd 2f54 d43d e4fc a73d
00000300: 5ad5 6a3d 3333 8bbd 55ae a7bd d26e 2abd
00000310: 51af ae3c d3b4 913d 3f70 03bd c85f 3e3d
00000320: ea1b 9c3d 444d 953d cb96 b33d d452 2b3d
00000330: 8cd5 e33c eb17 a33d b45b be3b e613 83bd
00000340: 4f06 c83d a49f 833d fbc5 6c3d dc1b 9fbd
00000350: 9d1a 42bc d1fd 67bd 57b4 d93c b345 923d
00000360: 4aa1 e93d 75f6 8f3d fd1c 97bd d052 e53d
00000370: 540b 653d 22e8 75bc ed20 febc 98b3 71bc
00000380: a17c 813d cfaf 18bd 0cec a73d 1d88 b13d
00000390: 4d93 6c3d 81da 363d 180f 9e3d dad6 d03d
000003a0: f05b 5cbd 850e 733c 7610 8cbd 5321 94bd
000003b0: 7079 db3c de0b ca3a e5a1 6ebd c850 b3bb
000003c0: 4596 c63d 9c25 873d bf6e 223d b1a0 4abd
000003d0: e673 39bd 9255 32bd 4af3 1e3c 014f f13b
000003e0: fb61 bc3d 225d 973b b286 bbbb ab84 a93c
000003f0: c033 b63c 9225 ae3c 2623 953c ba39 c93d
-0.04515514 0.036830213 0.068220735 0.059484974 0.064676136 0.011445163 -0.047759533 -0.071218304
0.037892748 0.033046108 -0.06407373 -0.065605015 -0.062686585 0.07704063 0.05036472 -0.06872845
-0.07159805 -0.040145326 -0.06536828 0.05726433 -0.011047115 -0.012087697 0.049828593 0.043842655
0.05995875 -0.03735959 -0.04541074 -0.02669379 0.04653162 -0.026146935 -0.07504474 -0.022949543
-0.036546584 -0.021864263 0.019504027 0.08629704 0.058798794 0.015060687 0.055560406 -0.059761647
0.107197136 -0.057319082 -0.064005844 0.07779662 0.034251157 0.061725568 0.10083144 0.055583134
-0.009717357 0.039122734 -0.03578311 -0.073770225 0.08969885 0.055517707 -0.047534514 0.0011216565
0.043413784 0.08631227 -0.018558515 0.09333185 -0.020340193 0.02662831 -0.0471709 0.07256008
0.08310131 0.09714387 -0.051805384 0.103594005 -0.058426827 -0.035332248 -0.059521884 -0.010967582
-0.061697338 0.008968326 0.01631711 0.04872112 -0.04807882 -0.027853569 0.03941702 0.0766808
0.04596415 -0.064936 0.097080946 -0.08489552 -0.0084937345 -0.018640127 0.056644045 -0.03260687
-0.011003169 -0.054976847 0.043051567 0.029677572 -0.0023607253 -0.0015912163 -0.01596486 0.009578183
-0.07080244 0.00242005 -0.058611266 -0.017126188 0.04807427 0.003605131 0.072761744 -0.018990029
-0.058898535 0.060968455 -0.0433094 0.0100079365 0.070430756 -0.04298942 -0.034058105 0.05851179
0.05459952 -0.06048836 0.038866546 -0.068410106 -0.039013393 0.032457013 0.049058784 0.05765404
-0.0043149292 0.05736049 -0.0055897925 0.0037759768 0.08289088 -0.031410385 -0.020846434 -0.0737253
0.095662005 -0.054604597 0.012233553 0.09858481 0.034955382 -0.05704658 -0.06841953 0.06475346
-0.050312024 -0.037044525 0.10851795 0.025928846 0.04676943 -0.009237172 0.10614011 0.014154535
-0.07249394 0.0011445273 0.0051764436 -0.057342615 -0.047592234 0.07835208 -0.034011934 0.039427646
-0.04692113 -0.04470438 0.05955135 -0.0045312876 0.013995811 0.0014866253 -0.005276314 -0.016911907
-0.02021455 -0.043459233 0.04484399 -0.0077598966 0.036952734 0.06432389 -0.053678542 0.042642187
0.08717288 -0.01834771 0.025374422 -0.011166071 0.07089471 0.082899585 -0.049932174 0.076016
-0.038805313 0.00032270636 0.0033302295 -0.06322002 -0.064565964 0.028028246 0.08483744 -0.013910615
-0.040510595 -0.02022531 -0.003414849 0.0013069302 0.012321955 -0.04015858 0.10367619 0.08202532
0.057332374 -0.06796875 -0.08187548 -0.041609593 0.021323832 0.071145676 -0.032089468 0.046478063
0.07622512 0.07290128 0.08768996 0.041827038 0.027811788 0.07963546 0.0058092717 -0.0640028
0.09766828 0.064269334 0.057805996 -0.07768986 -0.011847165 -0.056638543 0.02657525 0.071422
0.114077166 0.0702943 -0.07378576 0.11197436 0.055919006 -0.015008958 -0.03102156 -0.014752291
0.06322599 -0.03727704 0.08199319 0.0866854 0.057757664 0.044641975 0.07717723 0.1019723
-0.053798616 0.014835005 -0.06839077 -0.072329186 0.026791304 0.0015414914 -0.058259863 -0.0054722764
0.096966304 0.0659897 0.039656397 -0.049469654 -0.045276545 -0.043538637 0.009701559 0.0073641543
0.09198376 0.0046192566 -0.005722844 0.020693144 0.022241473 0.02125815 0.018205237 0.098254636

lstm.bias_hh_l0 f4 [512]
00000000: b584 693d f950 503d 92ad 993c 00ec 64bd
00000010: 99dc 043c 7c97 573c 0d50 923d 3caa 9ebc
00000020: 7ac5 933d 8bd7 4dbc a7ca ae3d 1d73 12bd
00000030: 40e4 6e3d e561 c93c a2d3 833d be41 98bc
00000040: 90a8 40bd c1c5 36bc 024e 763b 9d13 033d
00000050: 010f 493c a155 aa3d 3726 ee3c edd9 abbc
00000060: c0bc c93c 4fed 653b b8d6 813c ac40 963c
00000070: dd22 05bd 01e1 103d b4d1 d9bc bcc0 e23c
00000080: e81b b23d 7569 743d c9fc a6bd c7a7 35bc
00000090: c42a 0f3d c577 35bb ffca c9bc bb40 74bd
000000a0: 40ad 42bc 755d ea3c 1391 96bd 9e18 a33c
000000b0: bab7 c03d be26 853d 2054 643d c082 c13c
000000c0: d9c6 b5bc fd17 b9bd dcb6 73bc f5bb 5cbd
000000d0: 328c 9b3d a2ef 8d3d 2042 243c b28c b33d
000000e0: 4b9f 863c 8e60 6dbd cca5 47bc 179e d6bc
000000f0: d34e 783d 46df 65bd b776 96bd 62d2 a2bc
00000100: c2bf 1c3d 6207 4f3c 700a 37bd 3d51 4c3c
00000110: 6c7c 793d b326 99bd 5068 3e3d f64f a53c
00000120: 22f2 fe3b 61c8 e23d 511f b13d ec76 7f3d
00000130: 0629 893d b6a2 04bc 67c3 9c3d a2f8 bcbc
00000140: 3374 f03c dc2c b03d 22e0 9b3c 0b0d d7b9
00000150: 48a2 a0bc f484 ab3d 5f53 5abd 8faf bebc
00000160: c7e1 c83d e3f9 35bd c768 4b3d 01af 643d
00000170: 72b3 1dbd 1ab0 b03d 3438 a23d a9c0 cd3b
00000180: 6656 bb3c a12c 823c 0c73 50bc 505d 1b3d
00000190: 2903 5abd 888a 363d a362 d4bc 1367 ab3d
000001a0: 182a c53d f752 83bd eb4f f1bc f5b6 95bd
000001b0: d804 673d 7c48 d93d 3410 963d 398d 163d
000001c0: e1bf d53d 98f3 063d 1d03 6bbc dadf d13d
000001d0: c0ba bcbc 9d8e 7ebd 1812 4e3c 3ed0 93bd
000001e0: b111 b33d b06c 903d ea85 e23b 222c 9d3d
000001f0: c073 c13d 239a c33d 6ca4 afbc cd65 10bb
00000200: 6781 42bd 9a92 40bd 5ba2 8a3d 44c8 19bb
00000210: 1a34 a03d 1baa f33c a789 3ebd e63a d93c
00000220: 7688 8c3d c54e 98bc b574 dd3d ab32 ef3c
00000230: ceb0 ac3d 5a12 4d3b ac68 29bd 4a66 633d
00000240: 18ad a43d 5639 1c3d b1ab 86bc ffaf 49bd
00000250: 07a0 4abd 2876 453d 412b debb 0fe5 e43c
00000260: 741a b03d 4efe 873d 9263 443d a4b2 b83d
00000270: f17a 1ebd dcd4 6a3c 493f b7bc 03d9 19bd
00000280: 07a0 513d f9a3 ce3c 3204 793c d23a 3bbd
00000290: 08a9 6bbd 9244 2a3d 0f54 5c3d 6b24 de3c
000002a0: 799f a1bc 0e06 0b3d 4c46 f6bc 2037 d83c
000002b0: 504d 7f3d 0bd8 f5bc 93f7 ca3d 365a 87bc
000002c0: da27 3e3d f7d3 adbc e44f 1fbd 34a1 2fbd
000002d0: 3b58 173d 0f29 343d 59f4 a6bc 47f2 343d
000002e0: 94eb 9b3d f7ba ff3c 3870 b03c 7ee4 35bd
000002f0: 0708 273d 5311 20bd fe98 94bd f57c 753d
00000300: a800 243d cb3b c33d 49e4 8e3d ecc7 6dbd
00000310: 1dbb 5a3d f5e5 7dbd 873f 153d fec1 8abd
00000320: ea1e 1dbd 3d47 48bc bc9d a23c 80f8 cd3d
00000330: 10fb 743d f860 94bb 3e22 593b bb9a a23d
00000340: 470c af3d 2e8b 5a3d 0603 78bc 1d1c 58bd
00000350: 1ffe d83d a9bc 0e3d b36b d1bc f5a9 b03d
00000360: ea8e cd3d 29b6 54bd 9985 b53d 04be ecbc
00000370: e8e1 773d a2a5 d23d 2f66 28bd 5cfb 8fbd
00000380: 3ceb 913d 5dab 12bd 6666 09bd 61bf bf3d
00000390: 8d19 4d3d fc62 2cbd 196f d83d 5461 55bd
000003a0: 0483 3a3c 883e 893d 672f bc3d f3e8 2ebd
000003b0: 7fdb 8a3d e9b4 71bc fdb3 853d 5163 22bc
000003c0: 68bd 1f3d 7659 50bd 4121 ab3c 8660 e7bc
000003d0: d08d 2b3d 225c ca3c ef7f d33d d70a 98bd
000003e0: 359c 0c3c 8f9a 80bd 8d93 4c3d 2f56 6a3c
000003f0: d8f6 09bb 7287 29bc f547 8a3c 9e5c 8dbd
0.057011325 0.05085847 0.018759523 -0.05588913 0.008109235 0.013158675 0.07144175 -0.019368283
0.072154 -0.0125635965 0.085347466 -0.03575431 0.058323145 0.024582813 0.0643685 -0.018586036
-0.047035754 -0.011155547 0.0037583117 0.032001127 0.012271644 0.08317114 0.029070957 -0.020977939
0.024626136 0.0035084074 0.015849456 0.018341385 -0.03250395 0.03537083 -0.026589252 0.027679794
0.08696729 0.059670884 -0.08153684 -0.0110873645 0.034952894 -0.0027689796 -0.024632929 -0.059632044
-0.011882126 0.028609017 -0.073518895 0.0199092 0.09410043 0.0650153 0.05574429 0.023621917
-0.022189545 -0.090377785 -0.01487514 -0.053890187 0.075950995 0.06930472 0.010025531 0.0876707
0.016433379 -0.05795341 -0.012185525 -0.02619843 0.060622048 -0.056121133 -0.07346862 -0.019875709
0.038268812 0.012636038 -0.04468769 0.012470541 0.060909674 -0.074780844 0.0464862 0.02017973
0.0077803293 0.110733755 0.08648551 0.062369272 0.06697278 -0.008095434 0.076544575 -0.023067776
0.029352283 0.08602306 0.019027773 -0.00041017713 -0.019608632 0.08374968 -0.053302165 -0.023277072
0.098086886 -0.044427764 0.04966047 0.05583096 -0.03850121 0.08627339 0.07920876 0.0062790704
0.022868346 0.015890421 -0.012722742 0.037930787 -0.05322567 0.044565707 -0.02592594 0.08369269
0.09627169 -0.06412309 -0.029457053 -0.07310287 0.056401104 0.106095284 0.07327309 0.036755774
0.104369886 0.032947153 -0.014344004 0.102477744 -0.023038268 -0.062147725 0.012577556 -0.072174534
0.08743609 0.070519805 0.0069129365 0.07674433 0.09445906 0.095508836 -0.021440707 -0.0022033334
-0.04748669 -0.04701481 0.06769248 -0.0023465315 0.078224376 0.029744199 -0.046517994 0.026517343
0.06861965 -0.018592248 0.10813276 0.029198965 0.0843216 0.0031291456 -0.04135959 0.055517472
0.080408275 0.038140617 -0.01643929 -0.04924011 -0.04946902 0.048208386 -0.0067800586 0.027941255
0.085987955 0.06640302 0.04794652 0.09018448 -0.038691465 0.014332976 -0.022369044 -0.037560474
0.051178005 0.025224673 0.015198754 -0.045710392 -0.057534248 0.0415693 0.053791102 0.027116975
-0.019729363 0.03394132 -0.030062817 0.026393473 0.06232959 -0.030010244 0.09910502 -0.016522508
0.046424724 -0.021219237 -0.03889455 -0.042878345 0.036949378 0.04398447 -0.020380186 0.044176366
0.07613292 0.031217081 0.021537885 -0.04440736 0.04077914 -0.03907902 -0.072557434 0.05993362
0.04003969 0.09532889 0.06977136 -0.05805199 0.0534011 -0.061986882 0.036437538 -0.06775282
-0.03835956 -0.012224016 0.019850604 0.10057163 0.059809744 -0.004528161 0.0033131982 0.07939669
0.085472636 0.05335539 -0.01513744 -0.052761186 0.10595345 0.03484789 -0.02556405 0.08626167
0.10037024 -0.051931534 0.08863372 -0.0288992 0.060518175 0.10285498 -0.041113075 -0.07030365
0.071249455 -0.035807956 -0.03354492 0.093626745 0.050073195 -0.042086586 0.10568065 -0.052094772
0.011383776 0.0670138 0.09188729 -0.042702626 0.06780147 -0.014752605 0.06528471 -0.009911374
0.03899899 -0.050866567 0.02088988 -0.028244268 0.04188329 0.024702135 0.10327136 -0.074239425
0.0085821645 -0.0627948 0.049945403 0.014302774 -0.0021051671 -0.010347234 0.016880015 -0.06902431

classifier.1.weight f4 [6, 128]
00000000: a391 4dbd b8a7 5f3d 2c03 853b 59e3 05bc
00000010: d8a2 19bd 1775 813d c6e2 373d 131b 083d
00000020: 3d53 d2bc 42b3 353d e058 bf3d 236e 42bd
00000030: 60d0 003e 190f e0bd b68c f8bd 938e 44bd
00000040: 3be4 11bd 924b 983d e170 d63d c4a4 49bd
00000050: 53cc 32bd f937 66bd c56d 8d3c 1a0a 1dbd
00000060: 93fe 55bd 2669 a2bc ddc4 a0bd 7e63 003e
00000070: 5dfb da3d e02d 013e 1de2 f8bd e61e 7f3d
00000080: 6c17 cdbd 2135 413d 0920 eabd cb2f cebc
00000090: 0787 43bc fccb 0d3e 8562 93bd 8744 eebc
000000a0: b8b1 0abc d7fb f0bd 945e 523d 9b7a b93d
000000b0: 5b39 1b3d 74b0 b6bd 9bc2 2bbd f07d abbd
000000c0: b35f fa3d 74a5 09bd 142d b33d 0d20 44bd
000000d0: 179c a3bd 5c1c 00be f619 523c df12 c3bd
000000e0: b495 0d3d 5e21 643d 7ae0 c83b 776e 3abd
000000f0: da35 8f3d 4ca9 44bc 32d2 2fbd c477 0d3d
00000100: 19e4 9b3c ce0c a9bd 4fbf 3bba c6cc 0cbe
00000110: e01e 8f3c 22e9 8a3d dc3e ecb9 4de1 583d
00000120: 5320 3fbd 8257 823d aaa1 16bd 3bcb 0ebd
00000130: ca18 853c d795 bd3d b7fe 123e b524 d63d
00000140: 3290 edbb 4a71 86bd c065 23bd 8798 583d
00000150: d274 41bd e442 0abe fc19 e9bd 3729 49bd
00000160: af15 debd 025f 583d 006f 833b 72bc 753d
00000170: bd61 acbd c5b3 063e e34c 39bd 65f4 b7bd
00000180: e749 013e 0bfe a8bd 49fc 893c b025 143d
00000190: 7d6a f6bc 2189 a93d 5517 3a3d 170e 7d3d
000001a0: f057 62bd 353f 95bc ee18 c23d a948 40bd
000001b0: 285d f3bb 96f8 0bbd 7866 72bd b95a 9dbc
000001c0: e739 aabd c907 163d 5011 b13c e8b5 0a3c
000001d0: a841 1b3d 4645 56bd 63a3 d6bd b549 f73c
000001e0: aee8 b4bd b35e 123d 3782 51bd 9adb e03c
000001f0: 411e 9d3d 1312 ca3d 5b51 7abc 649e 0dbe
00000200: b649 423c fdc6 b13d a3ad a63c 9617 383b
00000210: 22da 7bbc 02ee 9bbd e6f7 963a e4e4 9b3d
00000220: b7be 153d 277c 5f3c 663b d8bd ceb5 b7bc
00000230: f18f 913c 1bd6 bbbc 118b 203c bd63 68bd
00000240: 3a27 a0bd 1f35 4abd 3963 3bbc df28 a93d
00000250: 461e bfbd ba57 39bd ac44 3abc db27 893d
00000260: 1308 d63d 509b 703c 4548 a0bc 3cfa adbd
00000270: 51fb 00bd 8bc1 41bd 63e3 9a3d 157b ecbb
00000280: 4bdd 2a3d 9173 863d e011 e33c 0dbf 25bd
00000290: f4b7 24bd bb04 3fbd b248 babd 17ff a93d
000002a0: b348 46bc cdc5 97bd 8cf9 913d b5cb ee3b
000002b0: a7b5 a63b cc6e 213d d910 d7bc d171 81bd
000002c0: 56ed 613d 9727 57bd 8fd8 ec3c f9e2 bcbd
000002d0: b0c4 963d a0cd 0abd b7a7 013d 8b79 86bd
000002e0: 2dc9 cdbb 81da 50bb 6a95 703d 1879 cd3c
000002f0: 50e7 763d d648 79bd 1350 debd f341 b23d
00000300: 6744 823d ae8d 9dbc 9c31 853d 67d3 c0ba
00000310: e0f9 05bd 6fc0 613c 098a acbd 21d1 8b3d
00000320: 9b28 e9bd 15f1 6d3d 9f81 9f3d bde4 38bd
00000330: 045e 8e3c da30 093d 6d06 803d d550 4b3d
00000340: fbf7 38bb 19ce 83bd a09f 323c 687c 68bd
00000350: 486b 0f3d 0c5e 783d 7c8a debd a319 c1bc
00000360: 79ca 63bc 325a c53b fca9 82bd c19e b8bd
00000370: 0dd1 c63c 3c3e 9e3d d8a8 c33d 143d 8cbd
00000380: b979 0ebc abca 5c3d abbb 283d 8a7c a5bd
00000390: 7064 273d 7b3c cebc abca 72bd 9056 b33d
000003a0: 2e3f 1bbd b897 dbbc 5593 d83d bf15 503c
000003b0: 5071 c53c 670a b5bc 8eda 53bd 4860 6dbd
000003c0: a304 6c3d 5618 9e3c 6da8 443d 19bd d9bc
000003d0: 45c9 cdbc c399 d03d 75ec b83d 57fc 29bc
000003e0: af83 81bd a20a 643d efaf 15bd 2373 533d
000003f0: 6c27 853d 883b 263d 1e9d aebd a219 36bd
-0.050187718 0.05460331 0.004059216 -0.00817188 -0.037508816 0.06321161 0.044894002 0.033228945
-0.025674457 0.044360407 0.093431234 -0.047468316 0.12579489 -0.1094038 -0.121362135 -0.047987532
-0.03561805 0.07436289 0.10470749 -0.0492294 -0.04365189 -0.056205723 0.017264256 -0.03833971
-0.052244734 -0.01982553 -0.07850049 0.12537953 0.10692475 0.12615156 -0.12152503 0.062285326
-0.10014233 0.04716981 -0.114318915 -0.025169274 -0.0119340485 0.13847345 -0.071965255 -0.02908541
-0.008465223 -0.11766785 0.051359728 0.09056588 0.037896495 -0.089203745 -0.041933637 -0.0837363
0.122252844 -0.033605054 0.08748832 -0.04788213 -0.07988756 -0.12510818 0.012823572 -0.09525084
0.034566596 0.055695884 0.0061302753 -0.045515504 0.06992693 -0.012003254 -0.042925067 0.034538046
0.019029664 -0.082543954 -0.0007161991 -0.1374999 0.017470777 0.06782748 -0.00045060262 0.05294924
-0.046661686 0.06364347 -0.03677527 -0.034861784 0.016247172 0.09257095 0.14354979 0.1045622
-0.0072498554 -0.06564577 -0.03989196 0.052879836 -0.04723055 -0.13502079 -0.11381909 -0.04911157
-0.108439796 0.05282498 0.004011035 0.05999417 -0.084170796 0.13154514 -0.04523934 -0.089821614
0.12625848 -0.0825158 0.016843932 0.036168754 -0.030080074 0.082781084 0.045432407 0.061781015
-0.055259645 -0.018218616 0.09477411 -0.046944294 -0.0074268766 -0.034172617 -0.059179753 -0.019208299
-0.08311825 0.03662852 0.0216147 0.008466221 0.03790441 -0.052312158 -0.10480382 0.030186513
-0.08833443 0.035734843 -0.051149573 0.027448464 0.07671786 0.09866729 -0.015278186 -0.13829952
0.011858394 0.08680532 0.020346468 0.002809023 -0.015371831 -0.07613756 0.0011517971 0.07612017
0.036558833 0.01364044 -0.10558204 -0.022425558 0.017768832 -0.022929242 0.009798781 -0.056735743
-0.07819982 -0.049367066 -0.011437231 0.08259749 -0.09331946 -0.04524968 -0.011368912 0.06697055
0.10450759 0.014685467 -0.01956571 -0.08494994 -0.031489674 -0.047303718 0.07562902 -0.007216821
0.041714948 0.06565011 0.027718484 -0.040465403 -0.040214494 -0.04663537 -0.09095897 0.08300608
-0.012102294 -0.074107744 0.071276754 0.0072874674 0.0050875726 0.039412305 -0.02625315 -0.06320537
0.05515798 -0.05252799 0.028911857 -0.09222979 0.07361734 -0.033887506 0.031654086 -0.06566151
-0.0062800855 -0.003186852 0.058736242 0.025082156 0.06027919 -0.060860477 -0.10855117 0.08703985
0.06360703 -0.019232597 0.06503603 -0.001471144 -0.032709002 0.01377879 -0.084247656 0.068269975
-0.11384698 0.058091242 0.07788395 -0.045140017 0.017378815 0.033493854 0.062512256 0.049637634
-0.002822398 -0.064357944 0.010902315 -0.056759268 0.03501442 0.060636565 -0.108662575 -0.023571795
-0.013903254 0.006022715 -0.06380078 -0.09014655 0.024269605 0.07726714 0.09553689 -0.06847587
-0.008696013 0.053904217 0.0411946 -0.080803946 0.04086727 -0.025175324 -0.05927531 0.08756745
-0.03790205 -0.026805744 0.10574976 0.012700497 0.024101883 -0.022099687 -0.051722102 -0.05795315
0.05762161 0.019298714 0.048012186 -0.026579427 -0.025120387 0.10185578 0.090294756 -0.010375104
-0.06323945 0.055674203 -0.036544736 0.051623475 0.0650166 0.040584117 -0.085260615 -0.04445804

classifier.1.bias f4 [6]
00000000: abe1 2a3c 02bd 1d3c 9db8 113d 8c18 103d
00000010: 2ec9 afbd 6841 e6bc
0.01042978 0.0096275825 0.03557645 0.03517966 -0.08583294 -0.02810736
